<?xml version="1.0" ?>
<net name="crnn192_fp32" version="10">
	<layers>
		<layer id="0" name="image" type="Parameter" version="opset1">
			<data element_type="f32" shape="1,3,64,192"/>
			<output>
				<port id="0" names="Func/StatefulPartitionedCall/input/_0:0,image:0" precision="FP32">
					<dim>1</dim>
					<dim>3</dim>
					<dim>64</dim>
					<dim>192</dim>
				</port>
			</output>
		</layer>
		<layer id="1" name="StatefulPartitionedCall/model/rescaling/Cast/x/EltwiseUnsqueeze7488_const" type="Const" version="opset1">
			<data element_type="f32" offset="0" shape="1,1,1,1" size="4"/>
			<output>
				<port id="0" names="StatefulPartitionedCall/model/rescaling/Cast/x:0" precision="FP32">
					<dim>1</dim>
					<dim>1</dim>
					<dim>1</dim>
					<dim>1</dim>
				</port>
			</output>
		</layer>
		<layer id="2" name="StatefulPartitionedCall/model/rescaling/mul" type="Multiply" version="opset1">
			<data auto_broadcast="numpy"/>
			<input>
				<port id="0">
					<dim>1</dim>
					<dim>3</dim>
					<dim>64</dim>
					<dim>192</dim>
				</port>
				<port id="1">
					<dim>1</dim>
					<dim>1</dim>
					<dim>1</dim>
					<dim>1</dim>
				</port>
			</input>
			<output>
				<port id="2" names="StatefulPartitionedCall/model/rescaling/mul:0" precision="FP32">
					<dim>1</dim>
					<dim>3</dim>
					<dim>64</dim>
					<dim>192</dim>
				</port>
			</output>
		</layer>
		<layer id="3" name="StatefulPartitionedCall/model/rescaling/Cast_1/x/EltwiseUnsqueeze7492_const" type="Const" version="opset1">
			<data element_type="f32" offset="4" shape="1,1,1,1" size="4"/>
			<output>
				<port id="0" names="StatefulPartitionedCall/model/rescaling/Cast_1/x:0" precision="FP32">
					<dim>1</dim>
					<dim>1</dim>
					<dim>1</dim>
					<dim>1</dim>
				</port>
			</output>
		</layer>
		<layer id="4" name="StatefulPartitionedCall/model/rescaling/add" type="Add" version="opset1">
			<data auto_broadcast="numpy"/>
			<input>
				<port id="0">
					<dim>1</dim>
					<dim>3</dim>
					<dim>64</dim>
					<dim>192</dim>
				</port>
				<port id="1">
					<dim>1</dim>
					<dim>1</dim>
					<dim>1</dim>
					<dim>1</dim>
				</port>
			</input>
			<output>
				<port id="2" names="StatefulPartitionedCall/model/rescaling/add:0" precision="FP32">
					<dim>1</dim>
					<dim>3</dim>
					<dim>64</dim>
					<dim>192</dim>
				</port>
			</output>
		</layer>
		<layer id="5" name="StatefulPartitionedCall/model/Conv/Conv2D/Transpose8988_const" type="Const" version="opset1">
			<data element_type="f32" offset="8" shape="16,3,3,3" size="1728"/>
			<output>
				<port id="0" names="StatefulPartitionedCall/model/Conv/Conv2D/ReadVariableOp:0" precision="FP32">
					<dim>16</dim>
					<dim>3</dim>
					<dim>3</dim>
					<dim>3</dim>
				</port>
			</output>
		</layer>
		<layer id="6" name="StatefulPartitionedCall/model/Conv/Conv2D" type="Convolution" version="opset1">
			<data auto_pad="same_upper" dilations="1,1" pads_begin="0,0" pads_end="0,0" strides="2,2"/>
			<input>
				<port id="0">
					<dim>1</dim>
					<dim>3</dim>
					<dim>64</dim>
					<dim>192</dim>
				</port>
				<port id="1">
					<dim>16</dim>
					<dim>3</dim>
					<dim>3</dim>
					<dim>3</dim>
				</port>
			</input>
			<output>
				<port id="2" precision="FP32">
					<dim>1</dim>
					<dim>16</dim>
					<dim>32</dim>
					<dim>96</dim>
				</port>
			</output>
		</layer>
		<layer id="7" name="data_add_70897414/EltwiseUnsqueeze7504_const" type="Const" version="opset1">
			<data element_type="f32" offset="1736" shape="1,16,1,1" size="64"/>
			<output>
				<port id="0" precision="FP32">
					<dim>1</dim>
					<dim>16</dim>
					<dim>1</dim>
					<dim>1</dim>
				</port>
			</output>
		</layer>
		<layer id="8" name="StatefulPartitionedCall/model/Conv/BatchNorm/FusedBatchNormV3/variance/Fused_Add_" type="Add" version="opset1">
			<data auto_broadcast="numpy"/>
			<input>
				<port id="0">
					<dim>1</dim>
					<dim>16</dim>
					<dim>32</dim>
					<dim>96</dim>
				</port>
				<port id="1">
					<dim>1</dim>
					<dim>16</dim>
					<dim>1</dim>
					<dim>1</dim>
				</port>
			</input>
			<output>
				<port id="2" names="StatefulPartitionedCall/model/Conv/BatchNorm/FusedBatchNormV3:0" precision="FP32">
					<dim>1</dim>
					<dim>16</dim>
					<dim>32</dim>
					<dim>96</dim>
				</port>
			</output>
		</layer>
		<layer id="9" name="StatefulPartitionedCall/model/re_lu/Relu" type="ReLU" version="opset1">
			<input>
				<port id="0">
					<dim>1</dim>
					<dim>16</dim>
					<dim>32</dim>
					<dim>96</dim>
				</port>
			</input>
			<output>
				<port id="1" names="StatefulPartitionedCall/model/re_lu/Relu:0" precision="FP32">
					<dim>1</dim>
					<dim>16</dim>
					<dim>32</dim>
					<dim>96</dim>
				</port>
			</output>
		</layer>
		<layer id="10" name="1130011303_const" type="Const" version="opset1">
			<data element_type="f32" offset="1800" shape="16,1,1,3,3" size="576"/>
			<output>
				<port id="0" names="StatefulPartitionedCall/model/expanded_conv/depthwise/depthwise/ReadVariableOp:0" precision="FP32">
					<dim>16</dim>
					<dim>1</dim>
					<dim>1</dim>
					<dim>3</dim>
					<dim>3</dim>
				</port>
			</output>
		</layer>
		<layer id="11" name="StatefulPartitionedCall/model/expanded_conv/depthwise/depthwise" type="GroupConvolution" version="opset1">
			<data auto_pad="same_upper" dilations="1,1" pads_begin="0,0" pads_end="0,0" strides="1,1"/>
			<input>
				<port id="0">
					<dim>1</dim>
					<dim>16</dim>
					<dim>32</dim>
					<dim>96</dim>
				</port>
				<port id="1">
					<dim>16</dim>
					<dim>1</dim>
					<dim>1</dim>
					<dim>3</dim>
					<dim>3</dim>
				</port>
			</input>
			<output>
				<port id="2" precision="FP32">
					<dim>1</dim>
					<dim>16</dim>
					<dim>32</dim>
					<dim>96</dim>
				</port>
			</output>
		</layer>
		<layer id="12" name="data_add_709270977416/EltwiseUnsqueeze7512_const" type="Const" version="opset1">
			<data element_type="f32" offset="2376" shape="1,16,1,1" size="64"/>
			<output>
				<port id="0" precision="FP32">
					<dim>1</dim>
					<dim>16</dim>
					<dim>1</dim>
					<dim>1</dim>
				</port>
			</output>
		</layer>
		<layer id="13" name="StatefulPartitionedCall/model/expanded_conv/depthwise/BatchNorm/FusedBatchNormV3/variance/Fused_Add_" type="Add" version="opset1">
			<data auto_broadcast="numpy"/>
			<input>
				<port id="0">
					<dim>1</dim>
					<dim>16</dim>
					<dim>32</dim>
					<dim>96</dim>
				</port>
				<port id="1">
					<dim>1</dim>
					<dim>16</dim>
					<dim>1</dim>
					<dim>1</dim>
				</port>
			</input>
			<output>
				<port id="2" names="StatefulPartitionedCall/model/expanded_conv/depthwise/BatchNorm/FusedBatchNormV3:0" precision="FP32">
					<dim>1</dim>
					<dim>16</dim>
					<dim>32</dim>
					<dim>96</dim>
				</port>
			</output>
		</layer>
		<layer id="14" name="StatefulPartitionedCall/model/re_lu_1/Relu" type="ReLU" version="opset1">
			<input>
				<port id="0">
					<dim>1</dim>
					<dim>16</dim>
					<dim>32</dim>
					<dim>96</dim>
				</port>
			</input>
			<output>
				<port id="1" names="StatefulPartitionedCall/model/re_lu_1/Relu:0" precision="FP32">
					<dim>1</dim>
					<dim>16</dim>
					<dim>32</dim>
					<dim>96</dim>
				</port>
			</output>
		</layer>
		<layer id="15" name="StatefulPartitionedCall/model/expanded_conv/project/Conv2D/Transpose8996_const" type="Const" version="opset1">
			<data element_type="f32" offset="2440" shape="16,16,1,1" size="1024"/>
			<output>
				<port id="0" names="StatefulPartitionedCall/model/expanded_conv/project/Conv2D/ReadVariableOp:0" precision="FP32">
					<dim>16</dim>
					<dim>16</dim>
					<dim>1</dim>
					<dim>1</dim>
				</port>
			</output>
		</layer>
		<layer id="16" name="StatefulPartitionedCall/model/expanded_conv/project/Conv2D" type="Convolution" version="opset1">
			<data auto_pad="same_upper" dilations="1,1" pads_begin="0,0" pads_end="0,0" strides="1,1"/>
			<input>
				<port id="0">
					<dim>1</dim>
					<dim>16</dim>
					<dim>32</dim>
					<dim>96</dim>
				</port>
				<port id="1">
					<dim>16</dim>
					<dim>16</dim>
					<dim>1</dim>
					<dim>1</dim>
				</port>
			</input>
			<output>
				<port id="2" precision="FP32">
					<dim>1</dim>
					<dim>16</dim>
					<dim>32</dim>
					<dim>96</dim>
				</port>
			</output>
		</layer>
		<layer id="17" name="data_add_710071057418/EltwiseUnsqueeze7520_const" type="Const" version="opset1">
			<data element_type="f32" offset="3464" shape="1,16,1,1" size="64"/>
			<output>
				<port id="0" precision="FP32">
					<dim>1</dim>
					<dim>16</dim>
					<dim>1</dim>
					<dim>1</dim>
				</port>
			</output>
		</layer>
		<layer id="18" name="StatefulPartitionedCall/model/expanded_conv/project/BatchNorm/FusedBatchNormV3/variance/Fused_Add_" type="Add" version="opset1">
			<data auto_broadcast="numpy"/>
			<input>
				<port id="0">
					<dim>1</dim>
					<dim>16</dim>
					<dim>32</dim>
					<dim>96</dim>
				</port>
				<port id="1">
					<dim>1</dim>
					<dim>16</dim>
					<dim>1</dim>
					<dim>1</dim>
				</port>
			</input>
			<output>
				<port id="2" names="StatefulPartitionedCall/model/expanded_conv/project/BatchNorm/FusedBatchNormV3:0" precision="FP32">
					<dim>1</dim>
					<dim>16</dim>
					<dim>32</dim>
					<dim>96</dim>
				</port>
			</output>
		</layer>
		<layer id="19" name="StatefulPartitionedCall/model/expanded_conv/Add/add" type="Add" version="opset1">
			<data auto_broadcast="numpy"/>
			<input>
				<port id="0">
					<dim>1</dim>
					<dim>16</dim>
					<dim>32</dim>
					<dim>96</dim>
				</port>
				<port id="1">
					<dim>1</dim>
					<dim>16</dim>
					<dim>32</dim>
					<dim>96</dim>
				</port>
			</input>
			<output>
				<port id="2" names="StatefulPartitionedCall/model/expanded_conv/Add/add:0" precision="FP32">
					<dim>1</dim>
					<dim>16</dim>
					<dim>32</dim>
					<dim>96</dim>
				</port>
			</output>
		</layer>
		<layer id="20" name="StatefulPartitionedCall/model/expanded_conv_1/expand/Conv2D/Transpose9000_const" type="Const" version="opset1">
			<data element_type="f32" offset="3528" shape="64,16,1,1" size="4096"/>
			<output>
				<port id="0" names="StatefulPartitionedCall/model/expanded_conv_1/expand/Conv2D/ReadVariableOp:0" precision="FP32">
					<dim>64</dim>
					<dim>16</dim>
					<dim>1</dim>
					<dim>1</dim>
				</port>
			</output>
		</layer>
		<layer id="21" name="StatefulPartitionedCall/model/expanded_conv_1/expand/Conv2D" type="Convolution" version="opset1">
			<data auto_pad="same_upper" dilations="1,1" pads_begin="0,0" pads_end="0,0" strides="1,1"/>
			<input>
				<port id="0">
					<dim>1</dim>
					<dim>16</dim>
					<dim>32</dim>
					<dim>96</dim>
				</port>
				<port id="1">
					<dim>64</dim>
					<dim>16</dim>
					<dim>1</dim>
					<dim>1</dim>
				</port>
			</input>
			<output>
				<port id="2" precision="FP32">
					<dim>1</dim>
					<dim>64</dim>
					<dim>32</dim>
					<dim>96</dim>
				</port>
			</output>
		</layer>
		<layer id="22" name="data_add_710871137420/EltwiseUnsqueeze7528_const" type="Const" version="opset1">
			<data element_type="f32" offset="7624" shape="1,64,1,1" size="256"/>
			<output>
				<port id="0" precision="FP32">
					<dim>1</dim>
					<dim>64</dim>
					<dim>1</dim>
					<dim>1</dim>
				</port>
			</output>
		</layer>
		<layer id="23" name="StatefulPartitionedCall/model/expanded_conv_1/expand/BatchNorm/FusedBatchNormV3/variance/Fused_Add_" type="Add" version="opset1">
			<data auto_broadcast="numpy"/>
			<input>
				<port id="0">
					<dim>1</dim>
					<dim>64</dim>
					<dim>32</dim>
					<dim>96</dim>
				</port>
				<port id="1">
					<dim>1</dim>
					<dim>64</dim>
					<dim>1</dim>
					<dim>1</dim>
				</port>
			</input>
			<output>
				<port id="2" names="StatefulPartitionedCall/model/expanded_conv_1/expand/BatchNorm/FusedBatchNormV3:0" precision="FP32">
					<dim>1</dim>
					<dim>64</dim>
					<dim>32</dim>
					<dim>96</dim>
				</port>
			</output>
		</layer>
		<layer id="24" name="StatefulPartitionedCall/model/re_lu_2/Relu" type="ReLU" version="opset1">
			<input>
				<port id="0">
					<dim>1</dim>
					<dim>64</dim>
					<dim>32</dim>
					<dim>96</dim>
				</port>
			</input>
			<output>
				<port id="1" names="StatefulPartitionedCall/model/re_lu_2/Relu:0" precision="FP32">
					<dim>1</dim>
					<dim>64</dim>
					<dim>32</dim>
					<dim>96</dim>
				</port>
			</output>
		</layer>
		<layer id="25" name="1129611299_const" type="Const" version="opset1">
			<data element_type="f32" offset="7880" shape="64,1,1,3,3" size="2304"/>
			<output>
				<port id="0" names="StatefulPartitionedCall/model/expanded_conv_1/depthwise/depthwise/ReadVariableOp:0" precision="FP32">
					<dim>64</dim>
					<dim>1</dim>
					<dim>1</dim>
					<dim>3</dim>
					<dim>3</dim>
				</port>
			</output>
		</layer>
		<layer id="26" name="StatefulPartitionedCall/model/expanded_conv_1/depthwise/depthwise" type="GroupConvolution" version="opset1">
			<data auto_pad="explicit" dilations="1,1" pads_begin="0,0" pads_end="1,1" strides="2,2"/>
			<input>
				<port id="0">
					<dim>1</dim>
					<dim>64</dim>
					<dim>32</dim>
					<dim>96</dim>
				</port>
				<port id="1">
					<dim>64</dim>
					<dim>1</dim>
					<dim>1</dim>
					<dim>3</dim>
					<dim>3</dim>
				</port>
			</input>
			<output>
				<port id="2" precision="FP32">
					<dim>1</dim>
					<dim>64</dim>
					<dim>16</dim>
					<dim>48</dim>
				</port>
			</output>
		</layer>
		<layer id="27" name="data_add_711671217422/EltwiseUnsqueeze7536_const" type="Const" version="opset1">
			<data element_type="f32" offset="10184" shape="1,64,1,1" size="256"/>
			<output>
				<port id="0" precision="FP32">
					<dim>1</dim>
					<dim>64</dim>
					<dim>1</dim>
					<dim>1</dim>
				</port>
			</output>
		</layer>
		<layer id="28" name="StatefulPartitionedCall/model/expanded_conv_1/depthwise/BatchNorm/FusedBatchNormV3/variance/Fused_Add_" type="Add" version="opset1">
			<data auto_broadcast="numpy"/>
			<input>
				<port id="0">
					<dim>1</dim>
					<dim>64</dim>
					<dim>16</dim>
					<dim>48</dim>
				</port>
				<port id="1">
					<dim>1</dim>
					<dim>64</dim>
					<dim>1</dim>
					<dim>1</dim>
				</port>
			</input>
			<output>
				<port id="2" names="StatefulPartitionedCall/model/expanded_conv_1/depthwise/BatchNorm/FusedBatchNormV3:0" precision="FP32">
					<dim>1</dim>
					<dim>64</dim>
					<dim>16</dim>
					<dim>48</dim>
				</port>
			</output>
		</layer>
		<layer id="29" name="StatefulPartitionedCall/model/re_lu_3/Relu" type="ReLU" version="opset1">
			<input>
				<port id="0">
					<dim>1</dim>
					<dim>64</dim>
					<dim>16</dim>
					<dim>48</dim>
				</port>
			</input>
			<output>
				<port id="1" names="StatefulPartitionedCall/model/re_lu_3/Relu:0" precision="FP32">
					<dim>1</dim>
					<dim>64</dim>
					<dim>16</dim>
					<dim>48</dim>
				</port>
			</output>
		</layer>
		<layer id="30" name="StatefulPartitionedCall/model/expanded_conv_1/project/Conv2D/Transpose9008_const" type="Const" version="opset1">
			<data element_type="f32" offset="10440" shape="24,64,1,1" size="6144"/>
			<output>
				<port id="0" names="StatefulPartitionedCall/model/expanded_conv_1/project/Conv2D/ReadVariableOp:0" precision="FP32">
					<dim>24</dim>
					<dim>64</dim>
					<dim>1</dim>
					<dim>1</dim>
				</port>
			</output>
		</layer>
		<layer id="31" name="StatefulPartitionedCall/model/expanded_conv_1/project/Conv2D" type="Convolution" version="opset1">
			<data auto_pad="same_upper" dilations="1,1" pads_begin="0,0" pads_end="0,0" strides="1,1"/>
			<input>
				<port id="0">
					<dim>1</dim>
					<dim>64</dim>
					<dim>16</dim>
					<dim>48</dim>
				</port>
				<port id="1">
					<dim>24</dim>
					<dim>64</dim>
					<dim>1</dim>
					<dim>1</dim>
				</port>
			</input>
			<output>
				<port id="2" precision="FP32">
					<dim>1</dim>
					<dim>24</dim>
					<dim>16</dim>
					<dim>48</dim>
				</port>
			</output>
		</layer>
		<layer id="32" name="data_add_712471297424/EltwiseUnsqueeze7544_const" type="Const" version="opset1">
			<data element_type="f32" offset="16584" shape="1,24,1,1" size="96"/>
			<output>
				<port id="0" precision="FP32">
					<dim>1</dim>
					<dim>24</dim>
					<dim>1</dim>
					<dim>1</dim>
				</port>
			</output>
		</layer>
		<layer id="33" name="StatefulPartitionedCall/model/expanded_conv_1/project/BatchNorm/FusedBatchNormV3/variance/Fused_Add_" type="Add" version="opset1">
			<data auto_broadcast="numpy"/>
			<input>
				<port id="0">
					<dim>1</dim>
					<dim>24</dim>
					<dim>16</dim>
					<dim>48</dim>
				</port>
				<port id="1">
					<dim>1</dim>
					<dim>24</dim>
					<dim>1</dim>
					<dim>1</dim>
				</port>
			</input>
			<output>
				<port id="2" names="StatefulPartitionedCall/model/expanded_conv_1/project/BatchNorm/FusedBatchNormV3:0" precision="FP32">
					<dim>1</dim>
					<dim>24</dim>
					<dim>16</dim>
					<dim>48</dim>
				</port>
			</output>
		</layer>
		<layer id="34" name="StatefulPartitionedCall/model/expanded_conv_2/expand/Conv2D/Transpose9012_const" type="Const" version="opset1">
			<data element_type="f32" offset="16680" shape="72,24,1,1" size="6912"/>
			<output>
				<port id="0" names="StatefulPartitionedCall/model/expanded_conv_2/expand/Conv2D/ReadVariableOp:0" precision="FP32">
					<dim>72</dim>
					<dim>24</dim>
					<dim>1</dim>
					<dim>1</dim>
				</port>
			</output>
		</layer>
		<layer id="35" name="StatefulPartitionedCall/model/expanded_conv_2/expand/Conv2D" type="Convolution" version="opset1">
			<data auto_pad="same_upper" dilations="1,1" pads_begin="0,0" pads_end="0,0" strides="1,1"/>
			<input>
				<port id="0">
					<dim>1</dim>
					<dim>24</dim>
					<dim>16</dim>
					<dim>48</dim>
				</port>
				<port id="1">
					<dim>72</dim>
					<dim>24</dim>
					<dim>1</dim>
					<dim>1</dim>
				</port>
			</input>
			<output>
				<port id="2" precision="FP32">
					<dim>1</dim>
					<dim>72</dim>
					<dim>16</dim>
					<dim>48</dim>
				</port>
			</output>
		</layer>
		<layer id="36" name="data_add_713271377426/EltwiseUnsqueeze7552_const" type="Const" version="opset1">
			<data element_type="f32" offset="23592" shape="1,72,1,1" size="288"/>
			<output>
				<port id="0" precision="FP32">
					<dim>1</dim>
					<dim>72</dim>
					<dim>1</dim>
					<dim>1</dim>
				</port>
			</output>
		</layer>
		<layer id="37" name="StatefulPartitionedCall/model/expanded_conv_2/expand/BatchNorm/FusedBatchNormV3/variance/Fused_Add_" type="Add" version="opset1">
			<data auto_broadcast="numpy"/>
			<input>
				<port id="0">
					<dim>1</dim>
					<dim>72</dim>
					<dim>16</dim>
					<dim>48</dim>
				</port>
				<port id="1">
					<dim>1</dim>
					<dim>72</dim>
					<dim>1</dim>
					<dim>1</dim>
				</port>
			</input>
			<output>
				<port id="2" names="StatefulPartitionedCall/model/expanded_conv_2/expand/BatchNorm/FusedBatchNormV3:0" precision="FP32">
					<dim>1</dim>
					<dim>72</dim>
					<dim>16</dim>
					<dim>48</dim>
				</port>
			</output>
		</layer>
		<layer id="38" name="StatefulPartitionedCall/model/re_lu_4/Relu" type="ReLU" version="opset1">
			<input>
				<port id="0">
					<dim>1</dim>
					<dim>72</dim>
					<dim>16</dim>
					<dim>48</dim>
				</port>
			</input>
			<output>
				<port id="1" names="StatefulPartitionedCall/model/re_lu_4/Relu:0" precision="FP32">
					<dim>1</dim>
					<dim>72</dim>
					<dim>16</dim>
					<dim>48</dim>
				</port>
			</output>
		</layer>
		<layer id="39" name="1131611319_const" type="Const" version="opset1">
			<data element_type="f32" offset="23880" shape="72,1,1,3,3" size="2592"/>
			<output>
				<port id="0" names="StatefulPartitionedCall/model/expanded_conv_2/depthwise/depthwise/ReadVariableOp:0" precision="FP32">
					<dim>72</dim>
					<dim>1</dim>
					<dim>1</dim>
					<dim>3</dim>
					<dim>3</dim>
				</port>
			</output>
		</layer>
		<layer id="40" name="StatefulPartitionedCall/model/expanded_conv_2/depthwise/depthwise" type="GroupConvolution" version="opset1">
			<data auto_pad="same_upper" dilations="1,1" pads_begin="0,0" pads_end="0,0" strides="1,1"/>
			<input>
				<port id="0">
					<dim>1</dim>
					<dim>72</dim>
					<dim>16</dim>
					<dim>48</dim>
				</port>
				<port id="1">
					<dim>72</dim>
					<dim>1</dim>
					<dim>1</dim>
					<dim>3</dim>
					<dim>3</dim>
				</port>
			</input>
			<output>
				<port id="2" precision="FP32">
					<dim>1</dim>
					<dim>72</dim>
					<dim>16</dim>
					<dim>48</dim>
				</port>
			</output>
		</layer>
		<layer id="41" name="data_add_714071457428/EltwiseUnsqueeze7560_const" type="Const" version="opset1">
			<data element_type="f32" offset="26472" shape="1,72,1,1" size="288"/>
			<output>
				<port id="0" precision="FP32">
					<dim>1</dim>
					<dim>72</dim>
					<dim>1</dim>
					<dim>1</dim>
				</port>
			</output>
		</layer>
		<layer id="42" name="StatefulPartitionedCall/model/expanded_conv_2/depthwise/BatchNorm/FusedBatchNormV3/variance/Fused_Add_" type="Add" version="opset1">
			<data auto_broadcast="numpy"/>
			<input>
				<port id="0">
					<dim>1</dim>
					<dim>72</dim>
					<dim>16</dim>
					<dim>48</dim>
				</port>
				<port id="1">
					<dim>1</dim>
					<dim>72</dim>
					<dim>1</dim>
					<dim>1</dim>
				</port>
			</input>
			<output>
				<port id="2" names="StatefulPartitionedCall/model/expanded_conv_2/depthwise/BatchNorm/FusedBatchNormV3:0" precision="FP32">
					<dim>1</dim>
					<dim>72</dim>
					<dim>16</dim>
					<dim>48</dim>
				</port>
			</output>
		</layer>
		<layer id="43" name="StatefulPartitionedCall/model/re_lu_5/Relu" type="ReLU" version="opset1">
			<input>
				<port id="0">
					<dim>1</dim>
					<dim>72</dim>
					<dim>16</dim>
					<dim>48</dim>
				</port>
			</input>
			<output>
				<port id="1" names="StatefulPartitionedCall/model/re_lu_5/Relu:0" precision="FP32">
					<dim>1</dim>
					<dim>72</dim>
					<dim>16</dim>
					<dim>48</dim>
				</port>
			</output>
		</layer>
		<layer id="44" name="StatefulPartitionedCall/model/expanded_conv_2/project/Conv2D/Transpose9020_const" type="Const" version="opset1">
			<data element_type="f32" offset="26760" shape="24,72,1,1" size="6912"/>
			<output>
				<port id="0" names="StatefulPartitionedCall/model/expanded_conv_2/project/Conv2D/ReadVariableOp:0" precision="FP32">
					<dim>24</dim>
					<dim>72</dim>
					<dim>1</dim>
					<dim>1</dim>
				</port>
			</output>
		</layer>
		<layer id="45" name="StatefulPartitionedCall/model/expanded_conv_2/project/Conv2D" type="Convolution" version="opset1">
			<data auto_pad="same_upper" dilations="1,1" pads_begin="0,0" pads_end="0,0" strides="1,1"/>
			<input>
				<port id="0">
					<dim>1</dim>
					<dim>72</dim>
					<dim>16</dim>
					<dim>48</dim>
				</port>
				<port id="1">
					<dim>24</dim>
					<dim>72</dim>
					<dim>1</dim>
					<dim>1</dim>
				</port>
			</input>
			<output>
				<port id="2" precision="FP32">
					<dim>1</dim>
					<dim>24</dim>
					<dim>16</dim>
					<dim>48</dim>
				</port>
			</output>
		</layer>
		<layer id="46" name="data_add_714871537430/EltwiseUnsqueeze7568_const" type="Const" version="opset1">
			<data element_type="f32" offset="33672" shape="1,24,1,1" size="96"/>
			<output>
				<port id="0" precision="FP32">
					<dim>1</dim>
					<dim>24</dim>
					<dim>1</dim>
					<dim>1</dim>
				</port>
			</output>
		</layer>
		<layer id="47" name="StatefulPartitionedCall/model/expanded_conv_2/project/BatchNorm/FusedBatchNormV3/variance/Fused_Add_" type="Add" version="opset1">
			<data auto_broadcast="numpy"/>
			<input>
				<port id="0">
					<dim>1</dim>
					<dim>24</dim>
					<dim>16</dim>
					<dim>48</dim>
				</port>
				<port id="1">
					<dim>1</dim>
					<dim>24</dim>
					<dim>1</dim>
					<dim>1</dim>
				</port>
			</input>
			<output>
				<port id="2" names="StatefulPartitionedCall/model/expanded_conv_2/project/BatchNorm/FusedBatchNormV3:0" precision="FP32">
					<dim>1</dim>
					<dim>24</dim>
					<dim>16</dim>
					<dim>48</dim>
				</port>
			</output>
		</layer>
		<layer id="48" name="StatefulPartitionedCall/model/expanded_conv_2/Add/add" type="Add" version="opset1">
			<data auto_broadcast="numpy"/>
			<input>
				<port id="0">
					<dim>1</dim>
					<dim>24</dim>
					<dim>16</dim>
					<dim>48</dim>
				</port>
				<port id="1">
					<dim>1</dim>
					<dim>24</dim>
					<dim>16</dim>
					<dim>48</dim>
				</port>
			</input>
			<output>
				<port id="2" names="StatefulPartitionedCall/model/expanded_conv_2/Add/add:0" precision="FP32">
					<dim>1</dim>
					<dim>24</dim>
					<dim>16</dim>
					<dim>48</dim>
				</port>
			</output>
		</layer>
		<layer id="49" name="StatefulPartitionedCall/model/expanded_conv_3/expand/Conv2D/Transpose9024_const" type="Const" version="opset1">
			<data element_type="f32" offset="33768" shape="72,24,1,1" size="6912"/>
			<output>
				<port id="0" names="StatefulPartitionedCall/model/expanded_conv_3/expand/Conv2D/ReadVariableOp:0" precision="FP32">
					<dim>72</dim>
					<dim>24</dim>
					<dim>1</dim>
					<dim>1</dim>
				</port>
			</output>
		</layer>
		<layer id="50" name="StatefulPartitionedCall/model/expanded_conv_3/expand/Conv2D" type="Convolution" version="opset1">
			<data auto_pad="same_upper" dilations="1,1" pads_begin="0,0" pads_end="0,0" strides="1,1"/>
			<input>
				<port id="0">
					<dim>1</dim>
					<dim>24</dim>
					<dim>16</dim>
					<dim>48</dim>
				</port>
				<port id="1">
					<dim>72</dim>
					<dim>24</dim>
					<dim>1</dim>
					<dim>1</dim>
				</port>
			</input>
			<output>
				<port id="2" precision="FP32">
					<dim>1</dim>
					<dim>72</dim>
					<dim>16</dim>
					<dim>48</dim>
				</port>
			</output>
		</layer>
		<layer id="51" name="data_add_715671617432/EltwiseUnsqueeze7576_const" type="Const" version="opset1">
			<data element_type="f32" offset="40680" shape="1,72,1,1" size="288"/>
			<output>
				<port id="0" precision="FP32">
					<dim>1</dim>
					<dim>72</dim>
					<dim>1</dim>
					<dim>1</dim>
				</port>
			</output>
		</layer>
		<layer id="52" name="StatefulPartitionedCall/model/expanded_conv_3/expand/BatchNorm/FusedBatchNormV3/variance/Fused_Add_" type="Add" version="opset1">
			<data auto_broadcast="numpy"/>
			<input>
				<port id="0">
					<dim>1</dim>
					<dim>72</dim>
					<dim>16</dim>
					<dim>48</dim>
				</port>
				<port id="1">
					<dim>1</dim>
					<dim>72</dim>
					<dim>1</dim>
					<dim>1</dim>
				</port>
			</input>
			<output>
				<port id="2" names="StatefulPartitionedCall/model/expanded_conv_3/expand/BatchNorm/FusedBatchNormV3:0" precision="FP32">
					<dim>1</dim>
					<dim>72</dim>
					<dim>16</dim>
					<dim>48</dim>
				</port>
			</output>
		</layer>
		<layer id="53" name="StatefulPartitionedCall/model/re_lu_6/Relu" type="ReLU" version="opset1">
			<input>
				<port id="0">
					<dim>1</dim>
					<dim>72</dim>
					<dim>16</dim>
					<dim>48</dim>
				</port>
			</input>
			<output>
				<port id="1" names="StatefulPartitionedCall/model/re_lu_6/Relu:0" precision="FP32">
					<dim>1</dim>
					<dim>72</dim>
					<dim>16</dim>
					<dim>48</dim>
				</port>
			</output>
		</layer>
		<layer id="54" name="1133611339_const" type="Const" version="opset1">
			<data element_type="f32" offset="40968" shape="72,1,1,3,3" size="2592"/>
			<output>
				<port id="0" names="StatefulPartitionedCall/model/expanded_conv_3/depthwise/depthwise/ReadVariableOp:0" precision="FP32">
					<dim>72</dim>
					<dim>1</dim>
					<dim>1</dim>
					<dim>3</dim>
					<dim>3</dim>
				</port>
			</output>
		</layer>
		<layer id="55" name="StatefulPartitionedCall/model/expanded_conv_3/depthwise/depthwise" type="GroupConvolution" version="opset1">
			<data auto_pad="explicit" dilations="1,1" pads_begin="0,0" pads_end="1,1" strides="2,2"/>
			<input>
				<port id="0">
					<dim>1</dim>
					<dim>72</dim>
					<dim>16</dim>
					<dim>48</dim>
				</port>
				<port id="1">
					<dim>72</dim>
					<dim>1</dim>
					<dim>1</dim>
					<dim>3</dim>
					<dim>3</dim>
				</port>
			</input>
			<output>
				<port id="2" precision="FP32">
					<dim>1</dim>
					<dim>72</dim>
					<dim>8</dim>
					<dim>24</dim>
				</port>
			</output>
		</layer>
		<layer id="56" name="data_add_716471697434/EltwiseUnsqueeze7584_const" type="Const" version="opset1">
			<data element_type="f32" offset="43560" shape="1,72,1,1" size="288"/>
			<output>
				<port id="0" precision="FP32">
					<dim>1</dim>
					<dim>72</dim>
					<dim>1</dim>
					<dim>1</dim>
				</port>
			</output>
		</layer>
		<layer id="57" name="StatefulPartitionedCall/model/expanded_conv_3/depthwise/BatchNorm/FusedBatchNormV3/variance/Fused_Add_" type="Add" version="opset1">
			<data auto_broadcast="numpy"/>
			<input>
				<port id="0">
					<dim>1</dim>
					<dim>72</dim>
					<dim>8</dim>
					<dim>24</dim>
				</port>
				<port id="1">
					<dim>1</dim>
					<dim>72</dim>
					<dim>1</dim>
					<dim>1</dim>
				</port>
			</input>
			<output>
				<port id="2" names="StatefulPartitionedCall/model/expanded_conv_3/depthwise/BatchNorm/FusedBatchNormV3:0" precision="FP32">
					<dim>1</dim>
					<dim>72</dim>
					<dim>8</dim>
					<dim>24</dim>
				</port>
			</output>
		</layer>
		<layer id="58" name="StatefulPartitionedCall/model/re_lu_7/Relu" type="ReLU" version="opset1">
			<input>
				<port id="0">
					<dim>1</dim>
					<dim>72</dim>
					<dim>8</dim>
					<dim>24</dim>
				</port>
			</input>
			<output>
				<port id="1" names="StatefulPartitionedCall/model/re_lu_7/Relu:0" precision="FP32">
					<dim>1</dim>
					<dim>72</dim>
					<dim>8</dim>
					<dim>24</dim>
				</port>
			</output>
		</layer>
		<layer id="59" name="StatefulPartitionedCall/model/expanded_conv_3/project/Conv2D/Transpose9032_const" type="Const" version="opset1">
			<data element_type="f32" offset="43848" shape="40,72,1,1" size="11520"/>
			<output>
				<port id="0" names="StatefulPartitionedCall/model/expanded_conv_3/project/Conv2D/ReadVariableOp:0" precision="FP32">
					<dim>40</dim>
					<dim>72</dim>
					<dim>1</dim>
					<dim>1</dim>
				</port>
			</output>
		</layer>
		<layer id="60" name="StatefulPartitionedCall/model/expanded_conv_3/project/Conv2D" type="Convolution" version="opset1">
			<data auto_pad="same_upper" dilations="1,1" pads_begin="0,0" pads_end="0,0" strides="1,1"/>
			<input>
				<port id="0">
					<dim>1</dim>
					<dim>72</dim>
					<dim>8</dim>
					<dim>24</dim>
				</port>
				<port id="1">
					<dim>40</dim>
					<dim>72</dim>
					<dim>1</dim>
					<dim>1</dim>
				</port>
			</input>
			<output>
				<port id="2" precision="FP32">
					<dim>1</dim>
					<dim>40</dim>
					<dim>8</dim>
					<dim>24</dim>
				</port>
			</output>
		</layer>
		<layer id="61" name="data_add_717271777436/EltwiseUnsqueeze7592_const" type="Const" version="opset1">
			<data element_type="f32" offset="55368" shape="1,40,1,1" size="160"/>
			<output>
				<port id="0" precision="FP32">
					<dim>1</dim>
					<dim>40</dim>
					<dim>1</dim>
					<dim>1</dim>
				</port>
			</output>
		</layer>
		<layer id="62" name="StatefulPartitionedCall/model/expanded_conv_3/project/BatchNorm/FusedBatchNormV3/variance/Fused_Add_" type="Add" version="opset1">
			<data auto_broadcast="numpy"/>
			<input>
				<port id="0">
					<dim>1</dim>
					<dim>40</dim>
					<dim>8</dim>
					<dim>24</dim>
				</port>
				<port id="1">
					<dim>1</dim>
					<dim>40</dim>
					<dim>1</dim>
					<dim>1</dim>
				</port>
			</input>
			<output>
				<port id="2" names="StatefulPartitionedCall/model/expanded_conv_3/project/BatchNorm/FusedBatchNormV3:0" precision="FP32">
					<dim>1</dim>
					<dim>40</dim>
					<dim>8</dim>
					<dim>24</dim>
				</port>
			</output>
		</layer>
		<layer id="63" name="StatefulPartitionedCall/model/expanded_conv_4/expand/Conv2D/Transpose9036_const" type="Const" version="opset1">
			<data element_type="f32" offset="55528" shape="120,40,1,1" size="19200"/>
			<output>
				<port id="0" names="StatefulPartitionedCall/model/expanded_conv_4/expand/Conv2D/ReadVariableOp:0" precision="FP32">
					<dim>120</dim>
					<dim>40</dim>
					<dim>1</dim>
					<dim>1</dim>
				</port>
			</output>
		</layer>
		<layer id="64" name="StatefulPartitionedCall/model/expanded_conv_4/expand/Conv2D" type="Convolution" version="opset1">
			<data auto_pad="same_upper" dilations="1,1" pads_begin="0,0" pads_end="0,0" strides="1,1"/>
			<input>
				<port id="0">
					<dim>1</dim>
					<dim>40</dim>
					<dim>8</dim>
					<dim>24</dim>
				</port>
				<port id="1">
					<dim>120</dim>
					<dim>40</dim>
					<dim>1</dim>
					<dim>1</dim>
				</port>
			</input>
			<output>
				<port id="2" precision="FP32">
					<dim>1</dim>
					<dim>120</dim>
					<dim>8</dim>
					<dim>24</dim>
				</port>
			</output>
		</layer>
		<layer id="65" name="data_add_718071857438/EltwiseUnsqueeze7600_const" type="Const" version="opset1">
			<data element_type="f32" offset="74728" shape="1,120,1,1" size="480"/>
			<output>
				<port id="0" precision="FP32">
					<dim>1</dim>
					<dim>120</dim>
					<dim>1</dim>
					<dim>1</dim>
				</port>
			</output>
		</layer>
		<layer id="66" name="StatefulPartitionedCall/model/expanded_conv_4/expand/BatchNorm/FusedBatchNormV3/variance/Fused_Add_" type="Add" version="opset1">
			<data auto_broadcast="numpy"/>
			<input>
				<port id="0">
					<dim>1</dim>
					<dim>120</dim>
					<dim>8</dim>
					<dim>24</dim>
				</port>
				<port id="1">
					<dim>1</dim>
					<dim>120</dim>
					<dim>1</dim>
					<dim>1</dim>
				</port>
			</input>
			<output>
				<port id="2" names="StatefulPartitionedCall/model/expanded_conv_4/expand/BatchNorm/FusedBatchNormV3:0" precision="FP32">
					<dim>1</dim>
					<dim>120</dim>
					<dim>8</dim>
					<dim>24</dim>
				</port>
			</output>
		</layer>
		<layer id="67" name="StatefulPartitionedCall/model/re_lu_8/Relu" type="ReLU" version="opset1">
			<input>
				<port id="0">
					<dim>1</dim>
					<dim>120</dim>
					<dim>8</dim>
					<dim>24</dim>
				</port>
			</input>
			<output>
				<port id="1" names="StatefulPartitionedCall/model/re_lu_8/Relu:0" precision="FP32">
					<dim>1</dim>
					<dim>120</dim>
					<dim>8</dim>
					<dim>24</dim>
				</port>
			</output>
		</layer>
		<layer id="68" name="1132411327_const" type="Const" version="opset1">
			<data element_type="f32" offset="75208" shape="120,1,1,3,3" size="4320"/>
			<output>
				<port id="0" names="StatefulPartitionedCall/model/expanded_conv_4/depthwise/depthwise/ReadVariableOp:0" precision="FP32">
					<dim>120</dim>
					<dim>1</dim>
					<dim>1</dim>
					<dim>3</dim>
					<dim>3</dim>
				</port>
			</output>
		</layer>
		<layer id="69" name="StatefulPartitionedCall/model/expanded_conv_4/depthwise/depthwise" type="GroupConvolution" version="opset1">
			<data auto_pad="same_upper" dilations="1,1" pads_begin="0,0" pads_end="0,0" strides="1,1"/>
			<input>
				<port id="0">
					<dim>1</dim>
					<dim>120</dim>
					<dim>8</dim>
					<dim>24</dim>
				</port>
				<port id="1">
					<dim>120</dim>
					<dim>1</dim>
					<dim>1</dim>
					<dim>3</dim>
					<dim>3</dim>
				</port>
			</input>
			<output>
				<port id="2" precision="FP32">
					<dim>1</dim>
					<dim>120</dim>
					<dim>8</dim>
					<dim>24</dim>
				</port>
			</output>
		</layer>
		<layer id="70" name="data_add_718871937440/EltwiseUnsqueeze7608_const" type="Const" version="opset1">
			<data element_type="f32" offset="79528" shape="1,120,1,1" size="480"/>
			<output>
				<port id="0" precision="FP32">
					<dim>1</dim>
					<dim>120</dim>
					<dim>1</dim>
					<dim>1</dim>
				</port>
			</output>
		</layer>
		<layer id="71" name="StatefulPartitionedCall/model/expanded_conv_4/depthwise/BatchNorm/FusedBatchNormV3/variance/Fused_Add_" type="Add" version="opset1">
			<data auto_broadcast="numpy"/>
			<input>
				<port id="0">
					<dim>1</dim>
					<dim>120</dim>
					<dim>8</dim>
					<dim>24</dim>
				</port>
				<port id="1">
					<dim>1</dim>
					<dim>120</dim>
					<dim>1</dim>
					<dim>1</dim>
				</port>
			</input>
			<output>
				<port id="2" names="StatefulPartitionedCall/model/expanded_conv_4/depthwise/BatchNorm/FusedBatchNormV3:0" precision="FP32">
					<dim>1</dim>
					<dim>120</dim>
					<dim>8</dim>
					<dim>24</dim>
				</port>
			</output>
		</layer>
		<layer id="72" name="StatefulPartitionedCall/model/re_lu_9/Relu" type="ReLU" version="opset1">
			<input>
				<port id="0">
					<dim>1</dim>
					<dim>120</dim>
					<dim>8</dim>
					<dim>24</dim>
				</port>
			</input>
			<output>
				<port id="1" names="StatefulPartitionedCall/model/re_lu_9/Relu:0" precision="FP32">
					<dim>1</dim>
					<dim>120</dim>
					<dim>8</dim>
					<dim>24</dim>
				</port>
			</output>
		</layer>
		<layer id="73" name="StatefulPartitionedCall/model/expanded_conv_4/project/Conv2D/Transpose9044_const" type="Const" version="opset1">
			<data element_type="f32" offset="80008" shape="40,120,1,1" size="19200"/>
			<output>
				<port id="0" names="StatefulPartitionedCall/model/expanded_conv_4/project/Conv2D/ReadVariableOp:0" precision="FP32">
					<dim>40</dim>
					<dim>120</dim>
					<dim>1</dim>
					<dim>1</dim>
				</port>
			</output>
		</layer>
		<layer id="74" name="StatefulPartitionedCall/model/expanded_conv_4/project/Conv2D" type="Convolution" version="opset1">
			<data auto_pad="same_upper" dilations="1,1" pads_begin="0,0" pads_end="0,0" strides="1,1"/>
			<input>
				<port id="0">
					<dim>1</dim>
					<dim>120</dim>
					<dim>8</dim>
					<dim>24</dim>
				</port>
				<port id="1">
					<dim>40</dim>
					<dim>120</dim>
					<dim>1</dim>
					<dim>1</dim>
				</port>
			</input>
			<output>
				<port id="2" precision="FP32">
					<dim>1</dim>
					<dim>40</dim>
					<dim>8</dim>
					<dim>24</dim>
				</port>
			</output>
		</layer>
		<layer id="75" name="data_add_719672017442/EltwiseUnsqueeze7616_const" type="Const" version="opset1">
			<data element_type="f32" offset="99208" shape="1,40,1,1" size="160"/>
			<output>
				<port id="0" precision="FP32">
					<dim>1</dim>
					<dim>40</dim>
					<dim>1</dim>
					<dim>1</dim>
				</port>
			</output>
		</layer>
		<layer id="76" name="StatefulPartitionedCall/model/expanded_conv_4/project/BatchNorm/FusedBatchNormV3/variance/Fused_Add_" type="Add" version="opset1">
			<data auto_broadcast="numpy"/>
			<input>
				<port id="0">
					<dim>1</dim>
					<dim>40</dim>
					<dim>8</dim>
					<dim>24</dim>
				</port>
				<port id="1">
					<dim>1</dim>
					<dim>40</dim>
					<dim>1</dim>
					<dim>1</dim>
				</port>
			</input>
			<output>
				<port id="2" names="StatefulPartitionedCall/model/expanded_conv_4/project/BatchNorm/FusedBatchNormV3:0" precision="FP32">
					<dim>1</dim>
					<dim>40</dim>
					<dim>8</dim>
					<dim>24</dim>
				</port>
			</output>
		</layer>
		<layer id="77" name="StatefulPartitionedCall/model/expanded_conv_4/Add/add" type="Add" version="opset1">
			<data auto_broadcast="numpy"/>
			<input>
				<port id="0">
					<dim>1</dim>
					<dim>40</dim>
					<dim>8</dim>
					<dim>24</dim>
				</port>
				<port id="1">
					<dim>1</dim>
					<dim>40</dim>
					<dim>8</dim>
					<dim>24</dim>
				</port>
			</input>
			<output>
				<port id="2" names="StatefulPartitionedCall/model/expanded_conv_4/Add/add:0" precision="FP32">
					<dim>1</dim>
					<dim>40</dim>
					<dim>8</dim>
					<dim>24</dim>
				</port>
			</output>
		</layer>
		<layer id="78" name="StatefulPartitionedCall/model/expanded_conv_5/expand/Conv2D/Transpose9048_const" type="Const" version="opset1">
			<data element_type="f32" offset="99368" shape="120,40,1,1" size="19200"/>
			<output>
				<port id="0" names="StatefulPartitionedCall/model/expanded_conv_5/expand/Conv2D/ReadVariableOp:0" precision="FP32">
					<dim>120</dim>
					<dim>40</dim>
					<dim>1</dim>
					<dim>1</dim>
				</port>
			</output>
		</layer>
		<layer id="79" name="StatefulPartitionedCall/model/expanded_conv_5/expand/Conv2D" type="Convolution" version="opset1">
			<data auto_pad="same_upper" dilations="1,1" pads_begin="0,0" pads_end="0,0" strides="1,1"/>
			<input>
				<port id="0">
					<dim>1</dim>
					<dim>40</dim>
					<dim>8</dim>
					<dim>24</dim>
				</port>
				<port id="1">
					<dim>120</dim>
					<dim>40</dim>
					<dim>1</dim>
					<dim>1</dim>
				</port>
			</input>
			<output>
				<port id="2" precision="FP32">
					<dim>1</dim>
					<dim>120</dim>
					<dim>8</dim>
					<dim>24</dim>
				</port>
			</output>
		</layer>
		<layer id="80" name="data_add_720472097444/EltwiseUnsqueeze7624_const" type="Const" version="opset1">
			<data element_type="f32" offset="118568" shape="1,120,1,1" size="480"/>
			<output>
				<port id="0" precision="FP32">
					<dim>1</dim>
					<dim>120</dim>
					<dim>1</dim>
					<dim>1</dim>
				</port>
			</output>
		</layer>
		<layer id="81" name="StatefulPartitionedCall/model/expanded_conv_5/expand/BatchNorm/FusedBatchNormV3/variance/Fused_Add_" type="Add" version="opset1">
			<data auto_broadcast="numpy"/>
			<input>
				<port id="0">
					<dim>1</dim>
					<dim>120</dim>
					<dim>8</dim>
					<dim>24</dim>
				</port>
				<port id="1">
					<dim>1</dim>
					<dim>120</dim>
					<dim>1</dim>
					<dim>1</dim>
				</port>
			</input>
			<output>
				<port id="2" names="StatefulPartitionedCall/model/expanded_conv_5/expand/BatchNorm/FusedBatchNormV3:0" precision="FP32">
					<dim>1</dim>
					<dim>120</dim>
					<dim>8</dim>
					<dim>24</dim>
				</port>
			</output>
		</layer>
		<layer id="82" name="StatefulPartitionedCall/model/re_lu_10/Relu" type="ReLU" version="opset1">
			<input>
				<port id="0">
					<dim>1</dim>
					<dim>120</dim>
					<dim>8</dim>
					<dim>24</dim>
				</port>
			</input>
			<output>
				<port id="1" names="StatefulPartitionedCall/model/re_lu_10/Relu:0" precision="FP32">
					<dim>1</dim>
					<dim>120</dim>
					<dim>8</dim>
					<dim>24</dim>
				</port>
			</output>
		</layer>
		<layer id="83" name="1132011323_const" type="Const" version="opset1">
			<data element_type="f32" offset="119048" shape="120,1,1,3,3" size="4320"/>
			<output>
				<port id="0" names="StatefulPartitionedCall/model/expanded_conv_5/depthwise/depthwise/ReadVariableOp:0" precision="FP32">
					<dim>120</dim>
					<dim>1</dim>
					<dim>1</dim>
					<dim>3</dim>
					<dim>3</dim>
				</port>
			</output>
		</layer>
		<layer id="84" name="StatefulPartitionedCall/model/expanded_conv_5/depthwise/depthwise" type="GroupConvolution" version="opset1">
			<data auto_pad="same_upper" dilations="1,1" pads_begin="0,0" pads_end="0,0" strides="1,1"/>
			<input>
				<port id="0">
					<dim>1</dim>
					<dim>120</dim>
					<dim>8</dim>
					<dim>24</dim>
				</port>
				<port id="1">
					<dim>120</dim>
					<dim>1</dim>
					<dim>1</dim>
					<dim>3</dim>
					<dim>3</dim>
				</port>
			</input>
			<output>
				<port id="2" precision="FP32">
					<dim>1</dim>
					<dim>120</dim>
					<dim>8</dim>
					<dim>24</dim>
				</port>
			</output>
		</layer>
		<layer id="85" name="data_add_721272177446/EltwiseUnsqueeze7632_const" type="Const" version="opset1">
			<data element_type="f32" offset="123368" shape="1,120,1,1" size="480"/>
			<output>
				<port id="0" precision="FP32">
					<dim>1</dim>
					<dim>120</dim>
					<dim>1</dim>
					<dim>1</dim>
				</port>
			</output>
		</layer>
		<layer id="86" name="StatefulPartitionedCall/model/expanded_conv_5/depthwise/BatchNorm/FusedBatchNormV3/variance/Fused_Add_" type="Add" version="opset1">
			<data auto_broadcast="numpy"/>
			<input>
				<port id="0">
					<dim>1</dim>
					<dim>120</dim>
					<dim>8</dim>
					<dim>24</dim>
				</port>
				<port id="1">
					<dim>1</dim>
					<dim>120</dim>
					<dim>1</dim>
					<dim>1</dim>
				</port>
			</input>
			<output>
				<port id="2" names="StatefulPartitionedCall/model/expanded_conv_5/depthwise/BatchNorm/FusedBatchNormV3:0" precision="FP32">
					<dim>1</dim>
					<dim>120</dim>
					<dim>8</dim>
					<dim>24</dim>
				</port>
			</output>
		</layer>
		<layer id="87" name="StatefulPartitionedCall/model/re_lu_11/Relu" type="ReLU" version="opset1">
			<input>
				<port id="0">
					<dim>1</dim>
					<dim>120</dim>
					<dim>8</dim>
					<dim>24</dim>
				</port>
			</input>
			<output>
				<port id="1" names="StatefulPartitionedCall/model/re_lu_11/Relu:0" precision="FP32">
					<dim>1</dim>
					<dim>120</dim>
					<dim>8</dim>
					<dim>24</dim>
				</port>
			</output>
		</layer>
		<layer id="88" name="StatefulPartitionedCall/model/expanded_conv_5/project/Conv2D/Transpose9056_const" type="Const" version="opset1">
			<data element_type="f32" offset="123848" shape="40,120,1,1" size="19200"/>
			<output>
				<port id="0" names="StatefulPartitionedCall/model/expanded_conv_5/project/Conv2D/ReadVariableOp:0" precision="FP32">
					<dim>40</dim>
					<dim>120</dim>
					<dim>1</dim>
					<dim>1</dim>
				</port>
			</output>
		</layer>
		<layer id="89" name="StatefulPartitionedCall/model/expanded_conv_5/project/Conv2D" type="Convolution" version="opset1">
			<data auto_pad="same_upper" dilations="1,1" pads_begin="0,0" pads_end="0,0" strides="1,1"/>
			<input>
				<port id="0">
					<dim>1</dim>
					<dim>120</dim>
					<dim>8</dim>
					<dim>24</dim>
				</port>
				<port id="1">
					<dim>40</dim>
					<dim>120</dim>
					<dim>1</dim>
					<dim>1</dim>
				</port>
			</input>
			<output>
				<port id="2" precision="FP32">
					<dim>1</dim>
					<dim>40</dim>
					<dim>8</dim>
					<dim>24</dim>
				</port>
			</output>
		</layer>
		<layer id="90" name="data_add_722072257448/EltwiseUnsqueeze7640_const" type="Const" version="opset1">
			<data element_type="f32" offset="143048" shape="1,40,1,1" size="160"/>
			<output>
				<port id="0" precision="FP32">
					<dim>1</dim>
					<dim>40</dim>
					<dim>1</dim>
					<dim>1</dim>
				</port>
			</output>
		</layer>
		<layer id="91" name="StatefulPartitionedCall/model/expanded_conv_5/project/BatchNorm/FusedBatchNormV3/variance/Fused_Add_" type="Add" version="opset1">
			<data auto_broadcast="numpy"/>
			<input>
				<port id="0">
					<dim>1</dim>
					<dim>40</dim>
					<dim>8</dim>
					<dim>24</dim>
				</port>
				<port id="1">
					<dim>1</dim>
					<dim>40</dim>
					<dim>1</dim>
					<dim>1</dim>
				</port>
			</input>
			<output>
				<port id="2" names="StatefulPartitionedCall/model/expanded_conv_5/project/BatchNorm/FusedBatchNormV3:0" precision="FP32">
					<dim>1</dim>
					<dim>40</dim>
					<dim>8</dim>
					<dim>24</dim>
				</port>
			</output>
		</layer>
		<layer id="92" name="StatefulPartitionedCall/model/expanded_conv_5/Add/add" type="Add" version="opset1">
			<data auto_broadcast="numpy"/>
			<input>
				<port id="0">
					<dim>1</dim>
					<dim>40</dim>
					<dim>8</dim>
					<dim>24</dim>
				</port>
				<port id="1">
					<dim>1</dim>
					<dim>40</dim>
					<dim>8</dim>
					<dim>24</dim>
				</port>
			</input>
			<output>
				<port id="2" names="StatefulPartitionedCall/model/expanded_conv_5/Add/add:0" precision="FP32">
					<dim>1</dim>
					<dim>40</dim>
					<dim>8</dim>
					<dim>24</dim>
				</port>
			</output>
		</layer>
		<layer id="93" name="StatefulPartitionedCall/model/expanded_conv_6/expand/Conv2D/Transpose9060_const" type="Const" version="opset1">
			<data element_type="f32" offset="143208" shape="240,40,1,1" size="38400"/>
			<output>
				<port id="0" names="StatefulPartitionedCall/model/expanded_conv_6/expand/Conv2D/ReadVariableOp:0" precision="FP32">
					<dim>240</dim>
					<dim>40</dim>
					<dim>1</dim>
					<dim>1</dim>
				</port>
			</output>
		</layer>
		<layer id="94" name="StatefulPartitionedCall/model/expanded_conv_6/expand/Conv2D" type="Convolution" version="opset1">
			<data auto_pad="same_upper" dilations="1,1" pads_begin="0,0" pads_end="0,0" strides="1,1"/>
			<input>
				<port id="0">
					<dim>1</dim>
					<dim>40</dim>
					<dim>8</dim>
					<dim>24</dim>
				</port>
				<port id="1">
					<dim>240</dim>
					<dim>40</dim>
					<dim>1</dim>
					<dim>1</dim>
				</port>
			</input>
			<output>
				<port id="2" precision="FP32">
					<dim>1</dim>
					<dim>240</dim>
					<dim>8</dim>
					<dim>24</dim>
				</port>
			</output>
		</layer>
		<layer id="95" name="data_add_722872337450/EltwiseUnsqueeze7648_const" type="Const" version="opset1">
			<data element_type="f32" offset="181608" shape="1,240,1,1" size="960"/>
			<output>
				<port id="0" precision="FP32">
					<dim>1</dim>
					<dim>240</dim>
					<dim>1</dim>
					<dim>1</dim>
				</port>
			</output>
		</layer>
		<layer id="96" name="StatefulPartitionedCall/model/expanded_conv_6/expand/BatchNorm/FusedBatchNormV3/variance/Fused_Add_" type="Add" version="opset1">
			<data auto_broadcast="numpy"/>
			<input>
				<port id="0">
					<dim>1</dim>
					<dim>240</dim>
					<dim>8</dim>
					<dim>24</dim>
				</port>
				<port id="1">
					<dim>1</dim>
					<dim>240</dim>
					<dim>1</dim>
					<dim>1</dim>
				</port>
			</input>
			<output>
				<port id="2" names="StatefulPartitionedCall/model/expanded_conv_6/expand/BatchNorm/FusedBatchNormV3:0" precision="FP32">
					<dim>1</dim>
					<dim>240</dim>
					<dim>8</dim>
					<dim>24</dim>
				</port>
			</output>
		</layer>
		<layer id="97" name="StatefulPartitionedCall/model/re_lu_12/Relu" type="ReLU" version="opset1">
			<input>
				<port id="0">
					<dim>1</dim>
					<dim>240</dim>
					<dim>8</dim>
					<dim>24</dim>
				</port>
			</input>
			<output>
				<port id="1" names="StatefulPartitionedCall/model/re_lu_12/Relu:0" precision="FP32">
					<dim>1</dim>
					<dim>240</dim>
					<dim>8</dim>
					<dim>24</dim>
				</port>
			</output>
		</layer>
		<layer id="98" name="1133211335_const" type="Const" version="opset1">
			<data element_type="f32" offset="182568" shape="240,1,1,3,3" size="8640"/>
			<output>
				<port id="0" names="StatefulPartitionedCall/model/expanded_conv_6/depthwise/depthwise/ReadVariableOp:0" precision="FP32">
					<dim>240</dim>
					<dim>1</dim>
					<dim>1</dim>
					<dim>3</dim>
					<dim>3</dim>
				</port>
			</output>
		</layer>
		<layer id="99" name="StatefulPartitionedCall/model/expanded_conv_6/depthwise/depthwise" type="GroupConvolution" version="opset1">
			<data auto_pad="explicit" dilations="1,1" pads_begin="0,0" pads_end="1,1" strides="2,2"/>
			<input>
				<port id="0">
					<dim>1</dim>
					<dim>240</dim>
					<dim>8</dim>
					<dim>24</dim>
				</port>
				<port id="1">
					<dim>240</dim>
					<dim>1</dim>
					<dim>1</dim>
					<dim>3</dim>
					<dim>3</dim>
				</port>
			</input>
			<output>
				<port id="2" precision="FP32">
					<dim>1</dim>
					<dim>240</dim>
					<dim>4</dim>
					<dim>12</dim>
				</port>
			</output>
		</layer>
		<layer id="100" name="data_add_723672417452/EltwiseUnsqueeze7656_const" type="Const" version="opset1">
			<data element_type="f32" offset="191208" shape="1,240,1,1" size="960"/>
			<output>
				<port id="0" precision="FP32">
					<dim>1</dim>
					<dim>240</dim>
					<dim>1</dim>
					<dim>1</dim>
				</port>
			</output>
		</layer>
		<layer id="101" name="StatefulPartitionedCall/model/expanded_conv_6/depthwise/BatchNorm/FusedBatchNormV3/variance/Fused_Add_" type="Add" version="opset1">
			<data auto_broadcast="numpy"/>
			<input>
				<port id="0">
					<dim>1</dim>
					<dim>240</dim>
					<dim>4</dim>
					<dim>12</dim>
				</port>
				<port id="1">
					<dim>1</dim>
					<dim>240</dim>
					<dim>1</dim>
					<dim>1</dim>
				</port>
			</input>
			<output>
				<port id="2" names="StatefulPartitionedCall/model/expanded_conv_6/depthwise/BatchNorm/FusedBatchNormV3:0" precision="FP32">
					<dim>1</dim>
					<dim>240</dim>
					<dim>4</dim>
					<dim>12</dim>
				</port>
			</output>
		</layer>
		<layer id="102" name="StatefulPartitionedCall/model/re_lu_13/Relu" type="ReLU" version="opset1">
			<input>
				<port id="0">
					<dim>1</dim>
					<dim>240</dim>
					<dim>4</dim>
					<dim>12</dim>
				</port>
			</input>
			<output>
				<port id="1" names="StatefulPartitionedCall/model/re_lu_13/Relu:0" precision="FP32">
					<dim>1</dim>
					<dim>240</dim>
					<dim>4</dim>
					<dim>12</dim>
				</port>
			</output>
		</layer>
		<layer id="103" name="StatefulPartitionedCall/model/expanded_conv_6/project/Conv2D/Transpose9068_const" type="Const" version="opset1">
			<data element_type="f32" offset="192168" shape="80,240,1,1" size="76800"/>
			<output>
				<port id="0" names="StatefulPartitionedCall/model/expanded_conv_6/project/Conv2D/ReadVariableOp:0" precision="FP32">
					<dim>80</dim>
					<dim>240</dim>
					<dim>1</dim>
					<dim>1</dim>
				</port>
			</output>
		</layer>
		<layer id="104" name="StatefulPartitionedCall/model/expanded_conv_6/project/Conv2D" type="Convolution" version="opset1">
			<data auto_pad="same_upper" dilations="1,1" pads_begin="0,0" pads_end="0,0" strides="1,1"/>
			<input>
				<port id="0">
					<dim>1</dim>
					<dim>240</dim>
					<dim>4</dim>
					<dim>12</dim>
				</port>
				<port id="1">
					<dim>80</dim>
					<dim>240</dim>
					<dim>1</dim>
					<dim>1</dim>
				</port>
			</input>
			<output>
				<port id="2" precision="FP32">
					<dim>1</dim>
					<dim>80</dim>
					<dim>4</dim>
					<dim>12</dim>
				</port>
			</output>
		</layer>
		<layer id="105" name="data_add_724472497454/EltwiseUnsqueeze7664_const" type="Const" version="opset1">
			<data element_type="f32" offset="268968" shape="1,80,1,1" size="320"/>
			<output>
				<port id="0" precision="FP32">
					<dim>1</dim>
					<dim>80</dim>
					<dim>1</dim>
					<dim>1</dim>
				</port>
			</output>
		</layer>
		<layer id="106" name="StatefulPartitionedCall/model/expanded_conv_6/project/BatchNorm/FusedBatchNormV3/variance/Fused_Add_" type="Add" version="opset1">
			<data auto_broadcast="numpy"/>
			<input>
				<port id="0">
					<dim>1</dim>
					<dim>80</dim>
					<dim>4</dim>
					<dim>12</dim>
				</port>
				<port id="1">
					<dim>1</dim>
					<dim>80</dim>
					<dim>1</dim>
					<dim>1</dim>
				</port>
			</input>
			<output>
				<port id="2" names="StatefulPartitionedCall/model/expanded_conv_6/project/BatchNorm/FusedBatchNormV3:0" precision="FP32">
					<dim>1</dim>
					<dim>80</dim>
					<dim>4</dim>
					<dim>12</dim>
				</port>
			</output>
		</layer>
		<layer id="107" name="StatefulPartitionedCall/model/expanded_conv_7/expand/Conv2D/Transpose9072_const" type="Const" version="opset1">
			<data element_type="f32" offset="269288" shape="200,80,1,1" size="64000"/>
			<output>
				<port id="0" names="StatefulPartitionedCall/model/expanded_conv_7/expand/Conv2D/ReadVariableOp:0" precision="FP32">
					<dim>200</dim>
					<dim>80</dim>
					<dim>1</dim>
					<dim>1</dim>
				</port>
			</output>
		</layer>
		<layer id="108" name="StatefulPartitionedCall/model/expanded_conv_7/expand/Conv2D" type="Convolution" version="opset1">
			<data auto_pad="same_upper" dilations="1,1" pads_begin="0,0" pads_end="0,0" strides="1,1"/>
			<input>
				<port id="0">
					<dim>1</dim>
					<dim>80</dim>
					<dim>4</dim>
					<dim>12</dim>
				</port>
				<port id="1">
					<dim>200</dim>
					<dim>80</dim>
					<dim>1</dim>
					<dim>1</dim>
				</port>
			</input>
			<output>
				<port id="2" precision="FP32">
					<dim>1</dim>
					<dim>200</dim>
					<dim>4</dim>
					<dim>12</dim>
				</port>
			</output>
		</layer>
		<layer id="109" name="data_add_725272577456/EltwiseUnsqueeze7672_const" type="Const" version="opset1">
			<data element_type="f32" offset="333288" shape="1,200,1,1" size="800"/>
			<output>
				<port id="0" precision="FP32">
					<dim>1</dim>
					<dim>200</dim>
					<dim>1</dim>
					<dim>1</dim>
				</port>
			</output>
		</layer>
		<layer id="110" name="StatefulPartitionedCall/model/expanded_conv_7/expand/BatchNorm/FusedBatchNormV3/variance/Fused_Add_" type="Add" version="opset1">
			<data auto_broadcast="numpy"/>
			<input>
				<port id="0">
					<dim>1</dim>
					<dim>200</dim>
					<dim>4</dim>
					<dim>12</dim>
				</port>
				<port id="1">
					<dim>1</dim>
					<dim>200</dim>
					<dim>1</dim>
					<dim>1</dim>
				</port>
			</input>
			<output>
				<port id="2" names="StatefulPartitionedCall/model/expanded_conv_7/expand/BatchNorm/FusedBatchNormV3:0" precision="FP32">
					<dim>1</dim>
					<dim>200</dim>
					<dim>4</dim>
					<dim>12</dim>
				</port>
			</output>
		</layer>
		<layer id="111" name="StatefulPartitionedCall/model/re_lu_14/Relu" type="ReLU" version="opset1">
			<input>
				<port id="0">
					<dim>1</dim>
					<dim>200</dim>
					<dim>4</dim>
					<dim>12</dim>
				</port>
			</input>
			<output>
				<port id="1" names="StatefulPartitionedCall/model/re_lu_14/Relu:0" precision="FP32">
					<dim>1</dim>
					<dim>200</dim>
					<dim>4</dim>
					<dim>12</dim>
				</port>
			</output>
		</layer>
		<layer id="112" name="1134011343_const" type="Const" version="opset1">
			<data element_type="f32" offset="334088" shape="200,1,1,3,3" size="7200"/>
			<output>
				<port id="0" names="StatefulPartitionedCall/model/expanded_conv_7/depthwise/depthwise/ReadVariableOp:0" precision="FP32">
					<dim>200</dim>
					<dim>1</dim>
					<dim>1</dim>
					<dim>3</dim>
					<dim>3</dim>
				</port>
			</output>
		</layer>
		<layer id="113" name="StatefulPartitionedCall/model/expanded_conv_7/depthwise/depthwise" type="GroupConvolution" version="opset1">
			<data auto_pad="same_upper" dilations="1,1" pads_begin="0,0" pads_end="0,0" strides="1,1"/>
			<input>
				<port id="0">
					<dim>1</dim>
					<dim>200</dim>
					<dim>4</dim>
					<dim>12</dim>
				</port>
				<port id="1">
					<dim>200</dim>
					<dim>1</dim>
					<dim>1</dim>
					<dim>3</dim>
					<dim>3</dim>
				</port>
			</input>
			<output>
				<port id="2" precision="FP32">
					<dim>1</dim>
					<dim>200</dim>
					<dim>4</dim>
					<dim>12</dim>
				</port>
			</output>
		</layer>
		<layer id="114" name="data_add_726072657458/EltwiseUnsqueeze7680_const" type="Const" version="opset1">
			<data element_type="f32" offset="341288" shape="1,200,1,1" size="800"/>
			<output>
				<port id="0" precision="FP32">
					<dim>1</dim>
					<dim>200</dim>
					<dim>1</dim>
					<dim>1</dim>
				</port>
			</output>
		</layer>
		<layer id="115" name="StatefulPartitionedCall/model/expanded_conv_7/depthwise/BatchNorm/FusedBatchNormV3/variance/Fused_Add_" type="Add" version="opset1">
			<data auto_broadcast="numpy"/>
			<input>
				<port id="0">
					<dim>1</dim>
					<dim>200</dim>
					<dim>4</dim>
					<dim>12</dim>
				</port>
				<port id="1">
					<dim>1</dim>
					<dim>200</dim>
					<dim>1</dim>
					<dim>1</dim>
				</port>
			</input>
			<output>
				<port id="2" names="StatefulPartitionedCall/model/expanded_conv_7/depthwise/BatchNorm/FusedBatchNormV3:0" precision="FP32">
					<dim>1</dim>
					<dim>200</dim>
					<dim>4</dim>
					<dim>12</dim>
				</port>
			</output>
		</layer>
		<layer id="116" name="StatefulPartitionedCall/model/re_lu_15/Relu" type="ReLU" version="opset1">
			<input>
				<port id="0">
					<dim>1</dim>
					<dim>200</dim>
					<dim>4</dim>
					<dim>12</dim>
				</port>
			</input>
			<output>
				<port id="1" names="StatefulPartitionedCall/model/re_lu_15/Relu:0" precision="FP32">
					<dim>1</dim>
					<dim>200</dim>
					<dim>4</dim>
					<dim>12</dim>
				</port>
			</output>
		</layer>
		<layer id="117" name="StatefulPartitionedCall/model/expanded_conv_7/project/Conv2D/Transpose9080_const" type="Const" version="opset1">
			<data element_type="f32" offset="342088" shape="80,200,1,1" size="64000"/>
			<output>
				<port id="0" names="StatefulPartitionedCall/model/expanded_conv_7/project/Conv2D/ReadVariableOp:0" precision="FP32">
					<dim>80</dim>
					<dim>200</dim>
					<dim>1</dim>
					<dim>1</dim>
				</port>
			</output>
		</layer>
		<layer id="118" name="StatefulPartitionedCall/model/expanded_conv_7/project/Conv2D" type="Convolution" version="opset1">
			<data auto_pad="same_upper" dilations="1,1" pads_begin="0,0" pads_end="0,0" strides="1,1"/>
			<input>
				<port id="0">
					<dim>1</dim>
					<dim>200</dim>
					<dim>4</dim>
					<dim>12</dim>
				</port>
				<port id="1">
					<dim>80</dim>
					<dim>200</dim>
					<dim>1</dim>
					<dim>1</dim>
				</port>
			</input>
			<output>
				<port id="2" precision="FP32">
					<dim>1</dim>
					<dim>80</dim>
					<dim>4</dim>
					<dim>12</dim>
				</port>
			</output>
		</layer>
		<layer id="119" name="data_add_726872737460/EltwiseUnsqueeze7688_const" type="Const" version="opset1">
			<data element_type="f32" offset="406088" shape="1,80,1,1" size="320"/>
			<output>
				<port id="0" precision="FP32">
					<dim>1</dim>
					<dim>80</dim>
					<dim>1</dim>
					<dim>1</dim>
				</port>
			</output>
		</layer>
		<layer id="120" name="StatefulPartitionedCall/model/expanded_conv_7/project/BatchNorm/FusedBatchNormV3/variance/Fused_Add_" type="Add" version="opset1">
			<data auto_broadcast="numpy"/>
			<input>
				<port id="0">
					<dim>1</dim>
					<dim>80</dim>
					<dim>4</dim>
					<dim>12</dim>
				</port>
				<port id="1">
					<dim>1</dim>
					<dim>80</dim>
					<dim>1</dim>
					<dim>1</dim>
				</port>
			</input>
			<output>
				<port id="2" names="StatefulPartitionedCall/model/expanded_conv_7/project/BatchNorm/FusedBatchNormV3:0" precision="FP32">
					<dim>1</dim>
					<dim>80</dim>
					<dim>4</dim>
					<dim>12</dim>
				</port>
			</output>
		</layer>
		<layer id="121" name="StatefulPartitionedCall/model/expanded_conv_7/Add/add" type="Add" version="opset1">
			<data auto_broadcast="numpy"/>
			<input>
				<port id="0">
					<dim>1</dim>
					<dim>80</dim>
					<dim>4</dim>
					<dim>12</dim>
				</port>
				<port id="1">
					<dim>1</dim>
					<dim>80</dim>
					<dim>4</dim>
					<dim>12</dim>
				</port>
			</input>
			<output>
				<port id="2" names="StatefulPartitionedCall/model/expanded_conv_7/Add/add:0" precision="FP32">
					<dim>1</dim>
					<dim>80</dim>
					<dim>4</dim>
					<dim>12</dim>
				</port>
			</output>
		</layer>
		<layer id="122" name="StatefulPartitionedCall/model/expanded_conv_8/expand/Conv2D/Transpose9084_const" type="Const" version="opset1">
			<data element_type="f32" offset="406408" shape="184,80,1,1" size="58880"/>
			<output>
				<port id="0" names="StatefulPartitionedCall/model/expanded_conv_8/expand/Conv2D/ReadVariableOp:0" precision="FP32">
					<dim>184</dim>
					<dim>80</dim>
					<dim>1</dim>
					<dim>1</dim>
				</port>
			</output>
		</layer>
		<layer id="123" name="StatefulPartitionedCall/model/expanded_conv_8/expand/Conv2D" type="Convolution" version="opset1">
			<data auto_pad="same_upper" dilations="1,1" pads_begin="0,0" pads_end="0,0" strides="1,1"/>
			<input>
				<port id="0">
					<dim>1</dim>
					<dim>80</dim>
					<dim>4</dim>
					<dim>12</dim>
				</port>
				<port id="1">
					<dim>184</dim>
					<dim>80</dim>
					<dim>1</dim>
					<dim>1</dim>
				</port>
			</input>
			<output>
				<port id="2" precision="FP32">
					<dim>1</dim>
					<dim>184</dim>
					<dim>4</dim>
					<dim>12</dim>
				</port>
			</output>
		</layer>
		<layer id="124" name="data_add_727672817462/EltwiseUnsqueeze7696_const" type="Const" version="opset1">
			<data element_type="f32" offset="465288" shape="1,184,1,1" size="736"/>
			<output>
				<port id="0" precision="FP32">
					<dim>1</dim>
					<dim>184</dim>
					<dim>1</dim>
					<dim>1</dim>
				</port>
			</output>
		</layer>
		<layer id="125" name="StatefulPartitionedCall/model/expanded_conv_8/expand/BatchNorm/FusedBatchNormV3/variance/Fused_Add_" type="Add" version="opset1">
			<data auto_broadcast="numpy"/>
			<input>
				<port id="0">
					<dim>1</dim>
					<dim>184</dim>
					<dim>4</dim>
					<dim>12</dim>
				</port>
				<port id="1">
					<dim>1</dim>
					<dim>184</dim>
					<dim>1</dim>
					<dim>1</dim>
				</port>
			</input>
			<output>
				<port id="2" names="StatefulPartitionedCall/model/expanded_conv_8/expand/BatchNorm/FusedBatchNormV3:0" precision="FP32">
					<dim>1</dim>
					<dim>184</dim>
					<dim>4</dim>
					<dim>12</dim>
				</port>
			</output>
		</layer>
		<layer id="126" name="StatefulPartitionedCall/model/re_lu_16/Relu" type="ReLU" version="opset1">
			<input>
				<port id="0">
					<dim>1</dim>
					<dim>184</dim>
					<dim>4</dim>
					<dim>12</dim>
				</port>
			</input>
			<output>
				<port id="1" names="StatefulPartitionedCall/model/re_lu_16/Relu:0" precision="FP32">
					<dim>1</dim>
					<dim>184</dim>
					<dim>4</dim>
					<dim>12</dim>
				</port>
			</output>
		</layer>
		<layer id="127" name="1132811331_const" type="Const" version="opset1">
			<data element_type="f32" offset="466024" shape="184,1,1,3,3" size="6624"/>
			<output>
				<port id="0" names="StatefulPartitionedCall/model/expanded_conv_8/depthwise/depthwise/ReadVariableOp:0" precision="FP32">
					<dim>184</dim>
					<dim>1</dim>
					<dim>1</dim>
					<dim>3</dim>
					<dim>3</dim>
				</port>
			</output>
		</layer>
		<layer id="128" name="StatefulPartitionedCall/model/expanded_conv_8/depthwise/depthwise" type="GroupConvolution" version="opset1">
			<data auto_pad="same_upper" dilations="1,1" pads_begin="0,0" pads_end="0,0" strides="1,1"/>
			<input>
				<port id="0">
					<dim>1</dim>
					<dim>184</dim>
					<dim>4</dim>
					<dim>12</dim>
				</port>
				<port id="1">
					<dim>184</dim>
					<dim>1</dim>
					<dim>1</dim>
					<dim>3</dim>
					<dim>3</dim>
				</port>
			</input>
			<output>
				<port id="2" precision="FP32">
					<dim>1</dim>
					<dim>184</dim>
					<dim>4</dim>
					<dim>12</dim>
				</port>
			</output>
		</layer>
		<layer id="129" name="data_add_728472897464/EltwiseUnsqueeze7704_const" type="Const" version="opset1">
			<data element_type="f32" offset="472648" shape="1,184,1,1" size="736"/>
			<output>
				<port id="0" precision="FP32">
					<dim>1</dim>
					<dim>184</dim>
					<dim>1</dim>
					<dim>1</dim>
				</port>
			</output>
		</layer>
		<layer id="130" name="StatefulPartitionedCall/model/expanded_conv_8/depthwise/BatchNorm/FusedBatchNormV3/variance/Fused_Add_" type="Add" version="opset1">
			<data auto_broadcast="numpy"/>
			<input>
				<port id="0">
					<dim>1</dim>
					<dim>184</dim>
					<dim>4</dim>
					<dim>12</dim>
				</port>
				<port id="1">
					<dim>1</dim>
					<dim>184</dim>
					<dim>1</dim>
					<dim>1</dim>
				</port>
			</input>
			<output>
				<port id="2" names="StatefulPartitionedCall/model/expanded_conv_8/depthwise/BatchNorm/FusedBatchNormV3:0" precision="FP32">
					<dim>1</dim>
					<dim>184</dim>
					<dim>4</dim>
					<dim>12</dim>
				</port>
			</output>
		</layer>
		<layer id="131" name="StatefulPartitionedCall/model/re_lu_17/Relu" type="ReLU" version="opset1">
			<input>
				<port id="0">
					<dim>1</dim>
					<dim>184</dim>
					<dim>4</dim>
					<dim>12</dim>
				</port>
			</input>
			<output>
				<port id="1" names="StatefulPartitionedCall/model/re_lu_17/Relu:0" precision="FP32">
					<dim>1</dim>
					<dim>184</dim>
					<dim>4</dim>
					<dim>12</dim>
				</port>
			</output>
		</layer>
		<layer id="132" name="StatefulPartitionedCall/model/expanded_conv_8/project/Conv2D/Transpose9092_const" type="Const" version="opset1">
			<data element_type="f32" offset="473384" shape="80,184,1,1" size="58880"/>
			<output>
				<port id="0" names="StatefulPartitionedCall/model/expanded_conv_8/project/Conv2D/ReadVariableOp:0" precision="FP32">
					<dim>80</dim>
					<dim>184</dim>
					<dim>1</dim>
					<dim>1</dim>
				</port>
			</output>
		</layer>
		<layer id="133" name="StatefulPartitionedCall/model/expanded_conv_8/project/Conv2D" type="Convolution" version="opset1">
			<data auto_pad="same_upper" dilations="1,1" pads_begin="0,0" pads_end="0,0" strides="1,1"/>
			<input>
				<port id="0">
					<dim>1</dim>
					<dim>184</dim>
					<dim>4</dim>
					<dim>12</dim>
				</port>
				<port id="1">
					<dim>80</dim>
					<dim>184</dim>
					<dim>1</dim>
					<dim>1</dim>
				</port>
			</input>
			<output>
				<port id="2" precision="FP32">
					<dim>1</dim>
					<dim>80</dim>
					<dim>4</dim>
					<dim>12</dim>
				</port>
			</output>
		</layer>
		<layer id="134" name="data_add_729272977466/EltwiseUnsqueeze7712_const" type="Const" version="opset1">
			<data element_type="f32" offset="532264" shape="1,80,1,1" size="320"/>
			<output>
				<port id="0" precision="FP32">
					<dim>1</dim>
					<dim>80</dim>
					<dim>1</dim>
					<dim>1</dim>
				</port>
			</output>
		</layer>
		<layer id="135" name="StatefulPartitionedCall/model/expanded_conv_8/project/BatchNorm/FusedBatchNormV3/variance/Fused_Add_" type="Add" version="opset1">
			<data auto_broadcast="numpy"/>
			<input>
				<port id="0">
					<dim>1</dim>
					<dim>80</dim>
					<dim>4</dim>
					<dim>12</dim>
				</port>
				<port id="1">
					<dim>1</dim>
					<dim>80</dim>
					<dim>1</dim>
					<dim>1</dim>
				</port>
			</input>
			<output>
				<port id="2" names="StatefulPartitionedCall/model/expanded_conv_8/project/BatchNorm/FusedBatchNormV3:0" precision="FP32">
					<dim>1</dim>
					<dim>80</dim>
					<dim>4</dim>
					<dim>12</dim>
				</port>
			</output>
		</layer>
		<layer id="136" name="StatefulPartitionedCall/model/expanded_conv_8/Add/add" type="Add" version="opset1">
			<data auto_broadcast="numpy"/>
			<input>
				<port id="0">
					<dim>1</dim>
					<dim>80</dim>
					<dim>4</dim>
					<dim>12</dim>
				</port>
				<port id="1">
					<dim>1</dim>
					<dim>80</dim>
					<dim>4</dim>
					<dim>12</dim>
				</port>
			</input>
			<output>
				<port id="2" names="StatefulPartitionedCall/model/expanded_conv_8/Add/add:0" precision="FP32">
					<dim>1</dim>
					<dim>80</dim>
					<dim>4</dim>
					<dim>12</dim>
				</port>
			</output>
		</layer>
		<layer id="137" name="StatefulPartitionedCall/model/expanded_conv_9/expand/Conv2D/Transpose9096_const" type="Const" version="opset1">
			<data element_type="f32" offset="532584" shape="184,80,1,1" size="58880"/>
			<output>
				<port id="0" names="StatefulPartitionedCall/model/expanded_conv_9/expand/Conv2D/ReadVariableOp:0" precision="FP32">
					<dim>184</dim>
					<dim>80</dim>
					<dim>1</dim>
					<dim>1</dim>
				</port>
			</output>
		</layer>
		<layer id="138" name="StatefulPartitionedCall/model/expanded_conv_9/expand/Conv2D" type="Convolution" version="opset1">
			<data auto_pad="same_upper" dilations="1,1" pads_begin="0,0" pads_end="0,0" strides="1,1"/>
			<input>
				<port id="0">
					<dim>1</dim>
					<dim>80</dim>
					<dim>4</dim>
					<dim>12</dim>
				</port>
				<port id="1">
					<dim>184</dim>
					<dim>80</dim>
					<dim>1</dim>
					<dim>1</dim>
				</port>
			</input>
			<output>
				<port id="2" precision="FP32">
					<dim>1</dim>
					<dim>184</dim>
					<dim>4</dim>
					<dim>12</dim>
				</port>
			</output>
		</layer>
		<layer id="139" name="data_add_730073057468/EltwiseUnsqueeze7720_const" type="Const" version="opset1">
			<data element_type="f32" offset="591464" shape="1,184,1,1" size="736"/>
			<output>
				<port id="0" precision="FP32">
					<dim>1</dim>
					<dim>184</dim>
					<dim>1</dim>
					<dim>1</dim>
				</port>
			</output>
		</layer>
		<layer id="140" name="StatefulPartitionedCall/model/expanded_conv_9/expand/BatchNorm/FusedBatchNormV3/variance/Fused_Add_" type="Add" version="opset1">
			<data auto_broadcast="numpy"/>
			<input>
				<port id="0">
					<dim>1</dim>
					<dim>184</dim>
					<dim>4</dim>
					<dim>12</dim>
				</port>
				<port id="1">
					<dim>1</dim>
					<dim>184</dim>
					<dim>1</dim>
					<dim>1</dim>
				</port>
			</input>
			<output>
				<port id="2" names="StatefulPartitionedCall/model/expanded_conv_9/expand/BatchNorm/FusedBatchNormV3:0" precision="FP32">
					<dim>1</dim>
					<dim>184</dim>
					<dim>4</dim>
					<dim>12</dim>
				</port>
			</output>
		</layer>
		<layer id="141" name="StatefulPartitionedCall/model/re_lu_18/Relu" type="ReLU" version="opset1">
			<input>
				<port id="0">
					<dim>1</dim>
					<dim>184</dim>
					<dim>4</dim>
					<dim>12</dim>
				</port>
			</input>
			<output>
				<port id="1" names="StatefulPartitionedCall/model/re_lu_18/Relu:0" precision="FP32">
					<dim>1</dim>
					<dim>184</dim>
					<dim>4</dim>
					<dim>12</dim>
				</port>
			</output>
		</layer>
		<layer id="142" name="1131211315_const" type="Const" version="opset1">
			<data element_type="f32" offset="592200" shape="184,1,1,3,3" size="6624"/>
			<output>
				<port id="0" names="StatefulPartitionedCall/model/expanded_conv_9/depthwise/depthwise/ReadVariableOp:0" precision="FP32">
					<dim>184</dim>
					<dim>1</dim>
					<dim>1</dim>
					<dim>3</dim>
					<dim>3</dim>
				</port>
			</output>
		</layer>
		<layer id="143" name="StatefulPartitionedCall/model/expanded_conv_9/depthwise/depthwise" type="GroupConvolution" version="opset1">
			<data auto_pad="same_upper" dilations="1,1" pads_begin="0,0" pads_end="0,0" strides="1,1"/>
			<input>
				<port id="0">
					<dim>1</dim>
					<dim>184</dim>
					<dim>4</dim>
					<dim>12</dim>
				</port>
				<port id="1">
					<dim>184</dim>
					<dim>1</dim>
					<dim>1</dim>
					<dim>3</dim>
					<dim>3</dim>
				</port>
			</input>
			<output>
				<port id="2" precision="FP32">
					<dim>1</dim>
					<dim>184</dim>
					<dim>4</dim>
					<dim>12</dim>
				</port>
			</output>
		</layer>
		<layer id="144" name="data_add_730873137470/EltwiseUnsqueeze7728_const" type="Const" version="opset1">
			<data element_type="f32" offset="598824" shape="1,184,1,1" size="736"/>
			<output>
				<port id="0" precision="FP32">
					<dim>1</dim>
					<dim>184</dim>
					<dim>1</dim>
					<dim>1</dim>
				</port>
			</output>
		</layer>
		<layer id="145" name="StatefulPartitionedCall/model/expanded_conv_9/depthwise/BatchNorm/FusedBatchNormV3/variance/Fused_Add_" type="Add" version="opset1">
			<data auto_broadcast="numpy"/>
			<input>
				<port id="0">
					<dim>1</dim>
					<dim>184</dim>
					<dim>4</dim>
					<dim>12</dim>
				</port>
				<port id="1">
					<dim>1</dim>
					<dim>184</dim>
					<dim>1</dim>
					<dim>1</dim>
				</port>
			</input>
			<output>
				<port id="2" names="StatefulPartitionedCall/model/expanded_conv_9/depthwise/BatchNorm/FusedBatchNormV3:0" precision="FP32">
					<dim>1</dim>
					<dim>184</dim>
					<dim>4</dim>
					<dim>12</dim>
				</port>
			</output>
		</layer>
		<layer id="146" name="StatefulPartitionedCall/model/re_lu_19/Relu" type="ReLU" version="opset1">
			<input>
				<port id="0">
					<dim>1</dim>
					<dim>184</dim>
					<dim>4</dim>
					<dim>12</dim>
				</port>
			</input>
			<output>
				<port id="1" names="StatefulPartitionedCall/model/re_lu_19/Relu:0" precision="FP32">
					<dim>1</dim>
					<dim>184</dim>
					<dim>4</dim>
					<dim>12</dim>
				</port>
			</output>
		</layer>
		<layer id="147" name="StatefulPartitionedCall/model/expanded_conv_9/project/Conv2D/Transpose9104_const" type="Const" version="opset1">
			<data element_type="f32" offset="599560" shape="80,184,1,1" size="58880"/>
			<output>
				<port id="0" names="StatefulPartitionedCall/model/expanded_conv_9/project/Conv2D/ReadVariableOp:0" precision="FP32">
					<dim>80</dim>
					<dim>184</dim>
					<dim>1</dim>
					<dim>1</dim>
				</port>
			</output>
		</layer>
		<layer id="148" name="StatefulPartitionedCall/model/expanded_conv_9/project/Conv2D" type="Convolution" version="opset1">
			<data auto_pad="same_upper" dilations="1,1" pads_begin="0,0" pads_end="0,0" strides="1,1"/>
			<input>
				<port id="0">
					<dim>1</dim>
					<dim>184</dim>
					<dim>4</dim>
					<dim>12</dim>
				</port>
				<port id="1">
					<dim>80</dim>
					<dim>184</dim>
					<dim>1</dim>
					<dim>1</dim>
				</port>
			</input>
			<output>
				<port id="2" precision="FP32">
					<dim>1</dim>
					<dim>80</dim>
					<dim>4</dim>
					<dim>12</dim>
				</port>
			</output>
		</layer>
		<layer id="149" name="data_add_731673217472/EltwiseUnsqueeze7736_const" type="Const" version="opset1">
			<data element_type="f32" offset="658440" shape="1,80,1,1" size="320"/>
			<output>
				<port id="0" precision="FP32">
					<dim>1</dim>
					<dim>80</dim>
					<dim>1</dim>
					<dim>1</dim>
				</port>
			</output>
		</layer>
		<layer id="150" name="StatefulPartitionedCall/model/expanded_conv_9/project/BatchNorm/FusedBatchNormV3/variance/Fused_Add_" type="Add" version="opset1">
			<data auto_broadcast="numpy"/>
			<input>
				<port id="0">
					<dim>1</dim>
					<dim>80</dim>
					<dim>4</dim>
					<dim>12</dim>
				</port>
				<port id="1">
					<dim>1</dim>
					<dim>80</dim>
					<dim>1</dim>
					<dim>1</dim>
				</port>
			</input>
			<output>
				<port id="2" names="StatefulPartitionedCall/model/expanded_conv_9/project/BatchNorm/FusedBatchNormV3:0" precision="FP32">
					<dim>1</dim>
					<dim>80</dim>
					<dim>4</dim>
					<dim>12</dim>
				</port>
			</output>
		</layer>
		<layer id="151" name="StatefulPartitionedCall/model/expanded_conv_9/Add/add" type="Add" version="opset1">
			<data auto_broadcast="numpy"/>
			<input>
				<port id="0">
					<dim>1</dim>
					<dim>80</dim>
					<dim>4</dim>
					<dim>12</dim>
				</port>
				<port id="1">
					<dim>1</dim>
					<dim>80</dim>
					<dim>4</dim>
					<dim>12</dim>
				</port>
			</input>
			<output>
				<port id="2" names="StatefulPartitionedCall/model/expanded_conv_9/Add/add:0" precision="FP32">
					<dim>1</dim>
					<dim>80</dim>
					<dim>4</dim>
					<dim>12</dim>
				</port>
			</output>
		</layer>
		<layer id="152" name="StatefulPartitionedCall/model/expanded_conv_10/expand/Conv2D/Transpose9108_const" type="Const" version="opset1">
			<data element_type="f32" offset="658760" shape="480,80,1,1" size="153600"/>
			<output>
				<port id="0" names="StatefulPartitionedCall/model/expanded_conv_10/expand/Conv2D/ReadVariableOp:0" precision="FP32">
					<dim>480</dim>
					<dim>80</dim>
					<dim>1</dim>
					<dim>1</dim>
				</port>
			</output>
		</layer>
		<layer id="153" name="StatefulPartitionedCall/model/expanded_conv_10/expand/Conv2D" type="Convolution" version="opset1">
			<data auto_pad="same_upper" dilations="1,1" pads_begin="0,0" pads_end="0,0" strides="1,1"/>
			<input>
				<port id="0">
					<dim>1</dim>
					<dim>80</dim>
					<dim>4</dim>
					<dim>12</dim>
				</port>
				<port id="1">
					<dim>480</dim>
					<dim>80</dim>
					<dim>1</dim>
					<dim>1</dim>
				</port>
			</input>
			<output>
				<port id="2" precision="FP32">
					<dim>1</dim>
					<dim>480</dim>
					<dim>4</dim>
					<dim>12</dim>
				</port>
			</output>
		</layer>
		<layer id="154" name="data_add_732473297474/EltwiseUnsqueeze7744_const" type="Const" version="opset1">
			<data element_type="f32" offset="812360" shape="1,480,1,1" size="1920"/>
			<output>
				<port id="0" precision="FP32">
					<dim>1</dim>
					<dim>480</dim>
					<dim>1</dim>
					<dim>1</dim>
				</port>
			</output>
		</layer>
		<layer id="155" name="StatefulPartitionedCall/model/expanded_conv_10/expand/BatchNorm/FusedBatchNormV3/variance/Fused_Add_" type="Add" version="opset1">
			<data auto_broadcast="numpy"/>
			<input>
				<port id="0">
					<dim>1</dim>
					<dim>480</dim>
					<dim>4</dim>
					<dim>12</dim>
				</port>
				<port id="1">
					<dim>1</dim>
					<dim>480</dim>
					<dim>1</dim>
					<dim>1</dim>
				</port>
			</input>
			<output>
				<port id="2" names="StatefulPartitionedCall/model/expanded_conv_10/expand/BatchNorm/FusedBatchNormV3:0" precision="FP32">
					<dim>1</dim>
					<dim>480</dim>
					<dim>4</dim>
					<dim>12</dim>
				</port>
			</output>
		</layer>
		<layer id="156" name="StatefulPartitionedCall/model/re_lu_20/Relu" type="ReLU" version="opset1">
			<input>
				<port id="0">
					<dim>1</dim>
					<dim>480</dim>
					<dim>4</dim>
					<dim>12</dim>
				</port>
			</input>
			<output>
				<port id="1" names="StatefulPartitionedCall/model/re_lu_20/Relu:0" precision="FP32">
					<dim>1</dim>
					<dim>480</dim>
					<dim>4</dim>
					<dim>12</dim>
				</port>
			</output>
		</layer>
		<layer id="157" name="1130411307_const" type="Const" version="opset1">
			<data element_type="f32" offset="814280" shape="480,1,1,3,3" size="17280"/>
			<output>
				<port id="0" names="StatefulPartitionedCall/model/expanded_conv_10/depthwise/depthwise/ReadVariableOp:0" precision="FP32">
					<dim>480</dim>
					<dim>1</dim>
					<dim>1</dim>
					<dim>3</dim>
					<dim>3</dim>
				</port>
			</output>
		</layer>
		<layer id="158" name="StatefulPartitionedCall/model/expanded_conv_10/depthwise/depthwise" type="GroupConvolution" version="opset1">
			<data auto_pad="same_upper" dilations="1,1" pads_begin="0,0" pads_end="0,0" strides="1,1"/>
			<input>
				<port id="0">
					<dim>1</dim>
					<dim>480</dim>
					<dim>4</dim>
					<dim>12</dim>
				</port>
				<port id="1">
					<dim>480</dim>
					<dim>1</dim>
					<dim>1</dim>
					<dim>3</dim>
					<dim>3</dim>
				</port>
			</input>
			<output>
				<port id="2" precision="FP32">
					<dim>1</dim>
					<dim>480</dim>
					<dim>4</dim>
					<dim>12</dim>
				</port>
			</output>
		</layer>
		<layer id="159" name="data_add_733273377476/EltwiseUnsqueeze7752_const" type="Const" version="opset1">
			<data element_type="f32" offset="831560" shape="1,480,1,1" size="1920"/>
			<output>
				<port id="0" precision="FP32">
					<dim>1</dim>
					<dim>480</dim>
					<dim>1</dim>
					<dim>1</dim>
				</port>
			</output>
		</layer>
		<layer id="160" name="StatefulPartitionedCall/model/expanded_conv_10/depthwise/BatchNorm/FusedBatchNormV3/variance/Fused_Add_" type="Add" version="opset1">
			<data auto_broadcast="numpy"/>
			<input>
				<port id="0">
					<dim>1</dim>
					<dim>480</dim>
					<dim>4</dim>
					<dim>12</dim>
				</port>
				<port id="1">
					<dim>1</dim>
					<dim>480</dim>
					<dim>1</dim>
					<dim>1</dim>
				</port>
			</input>
			<output>
				<port id="2" names="StatefulPartitionedCall/model/expanded_conv_10/depthwise/BatchNorm/FusedBatchNormV3:0" precision="FP32">
					<dim>1</dim>
					<dim>480</dim>
					<dim>4</dim>
					<dim>12</dim>
				</port>
			</output>
		</layer>
		<layer id="161" name="StatefulPartitionedCall/model/re_lu_21/Relu" type="ReLU" version="opset1">
			<input>
				<port id="0">
					<dim>1</dim>
					<dim>480</dim>
					<dim>4</dim>
					<dim>12</dim>
				</port>
			</input>
			<output>
				<port id="1" names="StatefulPartitionedCall/model/re_lu_21/Relu:0" precision="FP32">
					<dim>1</dim>
					<dim>480</dim>
					<dim>4</dim>
					<dim>12</dim>
				</port>
			</output>
		</layer>
		<layer id="162" name="StatefulPartitionedCall/model/expanded_conv_10/project/Conv2D/Transpose9116_const" type="Const" version="opset1">
			<data element_type="f32" offset="833480" shape="112,480,1,1" size="215040"/>
			<output>
				<port id="0" names="StatefulPartitionedCall/model/expanded_conv_10/project/Conv2D/ReadVariableOp:0" precision="FP32">
					<dim>112</dim>
					<dim>480</dim>
					<dim>1</dim>
					<dim>1</dim>
				</port>
			</output>
		</layer>
		<layer id="163" name="StatefulPartitionedCall/model/expanded_conv_10/project/Conv2D" type="Convolution" version="opset1">
			<data auto_pad="same_upper" dilations="1,1" pads_begin="0,0" pads_end="0,0" strides="1,1"/>
			<input>
				<port id="0">
					<dim>1</dim>
					<dim>480</dim>
					<dim>4</dim>
					<dim>12</dim>
				</port>
				<port id="1">
					<dim>112</dim>
					<dim>480</dim>
					<dim>1</dim>
					<dim>1</dim>
				</port>
			</input>
			<output>
				<port id="2" precision="FP32">
					<dim>1</dim>
					<dim>112</dim>
					<dim>4</dim>
					<dim>12</dim>
				</port>
			</output>
		</layer>
		<layer id="164" name="data_add_734073457478/EltwiseUnsqueeze7760_const" type="Const" version="opset1">
			<data element_type="f32" offset="1048520" shape="1,112,1,1" size="448"/>
			<output>
				<port id="0" precision="FP32">
					<dim>1</dim>
					<dim>112</dim>
					<dim>1</dim>
					<dim>1</dim>
				</port>
			</output>
		</layer>
		<layer id="165" name="StatefulPartitionedCall/model/expanded_conv_10/project/BatchNorm/FusedBatchNormV3/variance/Fused_Add_" type="Add" version="opset1">
			<data auto_broadcast="numpy"/>
			<input>
				<port id="0">
					<dim>1</dim>
					<dim>112</dim>
					<dim>4</dim>
					<dim>12</dim>
				</port>
				<port id="1">
					<dim>1</dim>
					<dim>112</dim>
					<dim>1</dim>
					<dim>1</dim>
				</port>
			</input>
			<output>
				<port id="2" names="StatefulPartitionedCall/model/expanded_conv_10/project/BatchNorm/FusedBatchNormV3:0" precision="FP32">
					<dim>1</dim>
					<dim>112</dim>
					<dim>4</dim>
					<dim>12</dim>
				</port>
			</output>
		</layer>
		<layer id="166" name="StatefulPartitionedCall/model/expanded_conv_11/expand/Conv2D/Transpose9120_const" type="Const" version="opset1">
			<data element_type="f32" offset="1048968" shape="672,112,1,1" size="301056"/>
			<output>
				<port id="0" names="StatefulPartitionedCall/model/expanded_conv_11/expand/Conv2D/ReadVariableOp:0" precision="FP32">
					<dim>672</dim>
					<dim>112</dim>
					<dim>1</dim>
					<dim>1</dim>
				</port>
			</output>
		</layer>
		<layer id="167" name="StatefulPartitionedCall/model/expanded_conv_11/expand/Conv2D" type="Convolution" version="opset1">
			<data auto_pad="same_upper" dilations="1,1" pads_begin="0,0" pads_end="0,0" strides="1,1"/>
			<input>
				<port id="0">
					<dim>1</dim>
					<dim>112</dim>
					<dim>4</dim>
					<dim>12</dim>
				</port>
				<port id="1">
					<dim>672</dim>
					<dim>112</dim>
					<dim>1</dim>
					<dim>1</dim>
				</port>
			</input>
			<output>
				<port id="2" precision="FP32">
					<dim>1</dim>
					<dim>672</dim>
					<dim>4</dim>
					<dim>12</dim>
				</port>
			</output>
		</layer>
		<layer id="168" name="data_add_734873537480/EltwiseUnsqueeze7768_const" type="Const" version="opset1">
			<data element_type="f32" offset="1350024" shape="1,672,1,1" size="2688"/>
			<output>
				<port id="0" precision="FP32">
					<dim>1</dim>
					<dim>672</dim>
					<dim>1</dim>
					<dim>1</dim>
				</port>
			</output>
		</layer>
		<layer id="169" name="StatefulPartitionedCall/model/expanded_conv_11/expand/BatchNorm/FusedBatchNormV3/variance/Fused_Add_" type="Add" version="opset1">
			<data auto_broadcast="numpy"/>
			<input>
				<port id="0">
					<dim>1</dim>
					<dim>672</dim>
					<dim>4</dim>
					<dim>12</dim>
				</port>
				<port id="1">
					<dim>1</dim>
					<dim>672</dim>
					<dim>1</dim>
					<dim>1</dim>
				</port>
			</input>
			<output>
				<port id="2" names="StatefulPartitionedCall/model/expanded_conv_11/expand/BatchNorm/FusedBatchNormV3:0" precision="FP32">
					<dim>1</dim>
					<dim>672</dim>
					<dim>4</dim>
					<dim>12</dim>
				</port>
			</output>
		</layer>
		<layer id="170" name="StatefulPartitionedCall/model/re_lu_22/Relu" type="ReLU" version="opset1">
			<input>
				<port id="0">
					<dim>1</dim>
					<dim>672</dim>
					<dim>4</dim>
					<dim>12</dim>
				</port>
			</input>
			<output>
				<port id="1" names="StatefulPartitionedCall/model/re_lu_22/Relu:0" precision="FP32">
					<dim>1</dim>
					<dim>672</dim>
					<dim>4</dim>
					<dim>12</dim>
				</port>
			</output>
		</layer>
		<layer id="171" name="1130811311_const" type="Const" version="opset1">
			<data element_type="f32" offset="1352712" shape="672,1,1,3,3" size="24192"/>
			<output>
				<port id="0" names="StatefulPartitionedCall/model/expanded_conv_11/depthwise/depthwise/ReadVariableOp:0" precision="FP32">
					<dim>672</dim>
					<dim>1</dim>
					<dim>1</dim>
					<dim>3</dim>
					<dim>3</dim>
				</port>
			</output>
		</layer>
		<layer id="172" name="StatefulPartitionedCall/model/expanded_conv_11/depthwise/depthwise" type="GroupConvolution" version="opset1">
			<data auto_pad="same_upper" dilations="1,1" pads_begin="0,0" pads_end="0,0" strides="1,1"/>
			<input>
				<port id="0">
					<dim>1</dim>
					<dim>672</dim>
					<dim>4</dim>
					<dim>12</dim>
				</port>
				<port id="1">
					<dim>672</dim>
					<dim>1</dim>
					<dim>1</dim>
					<dim>3</dim>
					<dim>3</dim>
				</port>
			</input>
			<output>
				<port id="2" precision="FP32">
					<dim>1</dim>
					<dim>672</dim>
					<dim>4</dim>
					<dim>12</dim>
				</port>
			</output>
		</layer>
		<layer id="173" name="data_add_735673617482/EltwiseUnsqueeze7776_const" type="Const" version="opset1">
			<data element_type="f32" offset="1376904" shape="1,672,1,1" size="2688"/>
			<output>
				<port id="0" precision="FP32">
					<dim>1</dim>
					<dim>672</dim>
					<dim>1</dim>
					<dim>1</dim>
				</port>
			</output>
		</layer>
		<layer id="174" name="StatefulPartitionedCall/model/expanded_conv_11/depthwise/BatchNorm/FusedBatchNormV3/variance/Fused_Add_" type="Add" version="opset1">
			<data auto_broadcast="numpy"/>
			<input>
				<port id="0">
					<dim>1</dim>
					<dim>672</dim>
					<dim>4</dim>
					<dim>12</dim>
				</port>
				<port id="1">
					<dim>1</dim>
					<dim>672</dim>
					<dim>1</dim>
					<dim>1</dim>
				</port>
			</input>
			<output>
				<port id="2" names="StatefulPartitionedCall/model/expanded_conv_11/depthwise/BatchNorm/FusedBatchNormV3:0" precision="FP32">
					<dim>1</dim>
					<dim>672</dim>
					<dim>4</dim>
					<dim>12</dim>
				</port>
			</output>
		</layer>
		<layer id="175" name="StatefulPartitionedCall/model/re_lu_23/Relu" type="ReLU" version="opset1">
			<input>
				<port id="0">
					<dim>1</dim>
					<dim>672</dim>
					<dim>4</dim>
					<dim>12</dim>
				</port>
			</input>
			<output>
				<port id="1" names="StatefulPartitionedCall/model/re_lu_23/Relu:0" precision="FP32">
					<dim>1</dim>
					<dim>672</dim>
					<dim>4</dim>
					<dim>12</dim>
				</port>
			</output>
		</layer>
		<layer id="176" name="StatefulPartitionedCall/model/expanded_conv_11/project/Conv2D/Transpose9128_const" type="Const" version="opset1">
			<data element_type="f32" offset="1379592" shape="112,672,1,1" size="301056"/>
			<output>
				<port id="0" names="StatefulPartitionedCall/model/expanded_conv_11/project/Conv2D/ReadVariableOp:0" precision="FP32">
					<dim>112</dim>
					<dim>672</dim>
					<dim>1</dim>
					<dim>1</dim>
				</port>
			</output>
		</layer>
		<layer id="177" name="StatefulPartitionedCall/model/expanded_conv_11/project/Conv2D" type="Convolution" version="opset1">
			<data auto_pad="same_upper" dilations="1,1" pads_begin="0,0" pads_end="0,0" strides="1,1"/>
			<input>
				<port id="0">
					<dim>1</dim>
					<dim>672</dim>
					<dim>4</dim>
					<dim>12</dim>
				</port>
				<port id="1">
					<dim>112</dim>
					<dim>672</dim>
					<dim>1</dim>
					<dim>1</dim>
				</port>
			</input>
			<output>
				<port id="2" precision="FP32">
					<dim>1</dim>
					<dim>112</dim>
					<dim>4</dim>
					<dim>12</dim>
				</port>
			</output>
		</layer>
		<layer id="178" name="data_add_736473697484/EltwiseUnsqueeze7784_const" type="Const" version="opset1">
			<data element_type="f32" offset="1680648" shape="1,112,1,1" size="448"/>
			<output>
				<port id="0" precision="FP32">
					<dim>1</dim>
					<dim>112</dim>
					<dim>1</dim>
					<dim>1</dim>
				</port>
			</output>
		</layer>
		<layer id="179" name="StatefulPartitionedCall/model/expanded_conv_11/project/BatchNorm/FusedBatchNormV3/variance/Fused_Add_" type="Add" version="opset1">
			<data auto_broadcast="numpy"/>
			<input>
				<port id="0">
					<dim>1</dim>
					<dim>112</dim>
					<dim>4</dim>
					<dim>12</dim>
				</port>
				<port id="1">
					<dim>1</dim>
					<dim>112</dim>
					<dim>1</dim>
					<dim>1</dim>
				</port>
			</input>
			<output>
				<port id="2" names="StatefulPartitionedCall/model/expanded_conv_11/project/BatchNorm/FusedBatchNormV3:0" precision="FP32">
					<dim>1</dim>
					<dim>112</dim>
					<dim>4</dim>
					<dim>12</dim>
				</port>
			</output>
		</layer>
		<layer id="180" name="StatefulPartitionedCall/model/expanded_conv_11/Add/add" type="Add" version="opset1">
			<data auto_broadcast="numpy"/>
			<input>
				<port id="0">
					<dim>1</dim>
					<dim>112</dim>
					<dim>4</dim>
					<dim>12</dim>
				</port>
				<port id="1">
					<dim>1</dim>
					<dim>112</dim>
					<dim>4</dim>
					<dim>12</dim>
				</port>
			</input>
			<output>
				<port id="2" names="StatefulPartitionedCall/model/expanded_conv_11/Add/add:0" precision="FP32">
					<dim>1</dim>
					<dim>112</dim>
					<dim>4</dim>
					<dim>12</dim>
				</port>
			</output>
		</layer>
		<layer id="181" name="1134411347_const" type="Const" version="opset1">
			<data element_type="f32" offset="1681096" shape="112,1,1,4,1" size="1792"/>
			<output>
				<port id="0" names="StatefulPartitionedCall/model/separable_conv2d/separable_conv2d/ReadVariableOp:0" precision="FP32">
					<dim>112</dim>
					<dim>1</dim>
					<dim>1</dim>
					<dim>4</dim>
					<dim>1</dim>
				</port>
			</output>
		</layer>
		<layer id="182" name="StatefulPartitionedCall/model/separable_conv2d/separable_conv2d/depthwise" type="GroupConvolution" version="opset1">
			<data auto_pad="valid" dilations="1,1" pads_begin="0,0" pads_end="0,0" strides="1,1"/>
			<input>
				<port id="0">
					<dim>1</dim>
					<dim>112</dim>
					<dim>4</dim>
					<dim>12</dim>
				</port>
				<port id="1">
					<dim>112</dim>
					<dim>1</dim>
					<dim>1</dim>
					<dim>4</dim>
					<dim>1</dim>
				</port>
			</input>
			<output>
				<port id="2" names="StatefulPartitionedCall/model/separable_conv2d/separable_conv2d/depthwise:0" precision="FP32">
					<dim>1</dim>
					<dim>112</dim>
					<dim>1</dim>
					<dim>12</dim>
				</port>
			</output>
		</layer>
		<layer id="183" name="StatefulPartitionedCall/model/separable_conv2d/separable_conv2d/Transpose9136_const" type="Const" version="opset1">
			<data element_type="f32" offset="1682888" shape="7550,112,1,1" size="3382400"/>
			<output>
				<port id="0" names="StatefulPartitionedCall/model/separable_conv2d/separable_conv2d/ReadVariableOp_1:0" precision="FP32">
					<dim>7550</dim>
					<dim>112</dim>
					<dim>1</dim>
					<dim>1</dim>
				</port>
			</output>
		</layer>
		<layer id="184" name="StatefulPartitionedCall/model/separable_conv2d/separable_conv2d" type="Convolution" version="opset1">
			<data auto_pad="valid" dilations="1,1" pads_begin="0,0" pads_end="0,0" strides="1,1"/>
			<input>
				<port id="0">
					<dim>1</dim>
					<dim>112</dim>
					<dim>1</dim>
					<dim>12</dim>
				</port>
				<port id="1">
					<dim>7550</dim>
					<dim>112</dim>
					<dim>1</dim>
					<dim>1</dim>
				</port>
			</input>
			<output>
				<port id="2" names="StatefulPartitionedCall/model/separable_conv2d/separable_conv2d:0" precision="FP32">
					<dim>1</dim>
					<dim>7550</dim>
					<dim>1</dim>
					<dim>12</dim>
				</port>
			</output>
		</layer>
		<layer id="185" name="StatefulPartitionedCall/model/separable_conv2d/BiasAdd/ReadVariableOp/EltwiseUnsqueeze7496_const" type="Const" version="opset1">
			<data element_type="f32" offset="5065288" shape="1,7550,1,1" size="30200"/>
			<output>
				<port id="0" names="StatefulPartitionedCall/model/separable_conv2d/BiasAdd/ReadVariableOp:0" precision="FP32">
					<dim>1</dim>
					<dim>7550</dim>
					<dim>1</dim>
					<dim>1</dim>
				</port>
			</output>
		</layer>
		<layer id="186" name="StatefulPartitionedCall/model/separable_conv2d/BiasAdd/Add" type="Add" version="opset1">
			<data auto_broadcast="numpy"/>
			<input>
				<port id="0">
					<dim>1</dim>
					<dim>7550</dim>
					<dim>1</dim>
					<dim>12</dim>
				</port>
				<port id="1">
					<dim>1</dim>
					<dim>7550</dim>
					<dim>1</dim>
					<dim>1</dim>
				</port>
			</input>
			<output>
				<port id="2" precision="FP32">
					<dim>1</dim>
					<dim>7550</dim>
					<dim>1</dim>
					<dim>12</dim>
				</port>
			</output>
		</layer>
		<layer id="187" name="StatefulPartitionedCall/model/separable_conv2d/BiasAdd/Add/Transpose/Cast_111507_const" type="Const" version="opset1">
			<data element_type="i64" offset="5095488" shape="4" size="32"/>
			<output>
				<port id="0" precision="I64">
					<dim>4</dim>
				</port>
			</output>
		</layer>
		<layer id="188" name="StatefulPartitionedCall/model/separable_conv2d/BiasAdd/Add/Transpose" type="Transpose" version="opset1">
			<input>
				<port id="0">
					<dim>1</dim>
					<dim>7550</dim>
					<dim>1</dim>
					<dim>12</dim>
				</port>
				<port id="1">
					<dim>4</dim>
				</port>
			</input>
			<output>
				<port id="2" names="StatefulPartitionedCall/model/separable_conv2d/BiasAdd:0" precision="FP32">
					<dim>1</dim>
					<dim>1</dim>
					<dim>12</dim>
					<dim>7550</dim>
				</port>
			</output>
		</layer>
		<layer id="189" name="StatefulPartitionedCall/model/logits/Squeeze/Dims/Output_0/Data__const" type="Const" version="opset1">
			<data element_type="i64" offset="5095520" shape="1" size="8"/>
			<output>
				<port id="0" precision="I64">
					<dim>1</dim>
				</port>
			</output>
		</layer>
		<layer id="190" name="StatefulPartitionedCall/model/logits/Squeeze" type="Squeeze" version="opset1">
			<input>
				<port id="0">
					<dim>1</dim>
					<dim>1</dim>
					<dim>12</dim>
					<dim>7550</dim>
				</port>
				<port id="1">
					<dim>1</dim>
				</port>
			</input>
			<output>
				<port id="2" names="StatefulPartitionedCall/model/logits/Squeeze:0" precision="FP32">
					<dim>1</dim>
					<dim>12</dim>
					<dim>7550</dim>
				</port>
			</output>
		</layer>
		<layer id="191" name="StatefulPartitionedCall/model/probs/Softmax" type="SoftMax" version="opset1">
			<data axis="2"/>
			<input>
				<port id="0">
					<dim>1</dim>
					<dim>12</dim>
					<dim>7550</dim>
				</port>
			</input>
			<output>
				<port id="1" names="Func/StatefulPartitionedCall/output/_184:0,StatefulPartitionedCall/Identity:0,StatefulPartitionedCall/model/probs/Softmax:0" precision="FP32">
					<dim>1</dim>
					<dim>12</dim>
					<dim>7550</dim>
				</port>
			</output>
		</layer>
		<layer id="192" name="Func/StatefulPartitionedCall/output/_184:0" type="Result" version="opset1">
			<input>
				<port id="0">
					<dim>1</dim>
					<dim>12</dim>
					<dim>7550</dim>
				</port>
			</input>
		</layer>
	</layers>
	<edges>
		<edge from-layer="0" from-port="0" to-layer="2" to-port="0"/>
		<edge from-layer="1" from-port="0" to-layer="2" to-port="1"/>
		<edge from-layer="2" from-port="2" to-layer="4" to-port="0"/>
		<edge from-layer="3" from-port="0" to-layer="4" to-port="1"/>
		<edge from-layer="4" from-port="2" to-layer="6" to-port="0"/>
		<edge from-layer="5" from-port="0" to-layer="6" to-port="1"/>
		<edge from-layer="6" from-port="2" to-layer="8" to-port="0"/>
		<edge from-layer="7" from-port="0" to-layer="8" to-port="1"/>
		<edge from-layer="8" from-port="2" to-layer="9" to-port="0"/>
		<edge from-layer="9" from-port="1" to-layer="11" to-port="0"/>
		<edge from-layer="10" from-port="0" to-layer="11" to-port="1"/>
		<edge from-layer="11" from-port="2" to-layer="13" to-port="0"/>
		<edge from-layer="12" from-port="0" to-layer="13" to-port="1"/>
		<edge from-layer="13" from-port="2" to-layer="14" to-port="0"/>
		<edge from-layer="14" from-port="1" to-layer="16" to-port="0"/>
		<edge from-layer="15" from-port="0" to-layer="16" to-port="1"/>
		<edge from-layer="16" from-port="2" to-layer="18" to-port="0"/>
		<edge from-layer="17" from-port="0" to-layer="18" to-port="1"/>
		<edge from-layer="9" from-port="1" to-layer="19" to-port="0"/>
		<edge from-layer="18" from-port="2" to-layer="19" to-port="1"/>
		<edge from-layer="19" from-port="2" to-layer="21" to-port="0"/>
		<edge from-layer="20" from-port="0" to-layer="21" to-port="1"/>
		<edge from-layer="21" from-port="2" to-layer="23" to-port="0"/>
		<edge from-layer="22" from-port="0" to-layer="23" to-port="1"/>
		<edge from-layer="23" from-port="2" to-layer="24" to-port="0"/>
		<edge from-layer="24" from-port="1" to-layer="26" to-port="0"/>
		<edge from-layer="25" from-port="0" to-layer="26" to-port="1"/>
		<edge from-layer="26" from-port="2" to-layer="28" to-port="0"/>
		<edge from-layer="27" from-port="0" to-layer="28" to-port="1"/>
		<edge from-layer="28" from-port="2" to-layer="29" to-port="0"/>
		<edge from-layer="29" from-port="1" to-layer="31" to-port="0"/>
		<edge from-layer="30" from-port="0" to-layer="31" to-port="1"/>
		<edge from-layer="31" from-port="2" to-layer="33" to-port="0"/>
		<edge from-layer="32" from-port="0" to-layer="33" to-port="1"/>
		<edge from-layer="33" from-port="2" to-layer="35" to-port="0"/>
		<edge from-layer="34" from-port="0" to-layer="35" to-port="1"/>
		<edge from-layer="35" from-port="2" to-layer="37" to-port="0"/>
		<edge from-layer="36" from-port="0" to-layer="37" to-port="1"/>
		<edge from-layer="37" from-port="2" to-layer="38" to-port="0"/>
		<edge from-layer="38" from-port="1" to-layer="40" to-port="0"/>
		<edge from-layer="39" from-port="0" to-layer="40" to-port="1"/>
		<edge from-layer="40" from-port="2" to-layer="42" to-port="0"/>
		<edge from-layer="41" from-port="0" to-layer="42" to-port="1"/>
		<edge from-layer="42" from-port="2" to-layer="43" to-port="0"/>
		<edge from-layer="43" from-port="1" to-layer="45" to-port="0"/>
		<edge from-layer="44" from-port="0" to-layer="45" to-port="1"/>
		<edge from-layer="45" from-port="2" to-layer="47" to-port="0"/>
		<edge from-layer="46" from-port="0" to-layer="47" to-port="1"/>
		<edge from-layer="33" from-port="2" to-layer="48" to-port="0"/>
		<edge from-layer="47" from-port="2" to-layer="48" to-port="1"/>
		<edge from-layer="48" from-port="2" to-layer="50" to-port="0"/>
		<edge from-layer="49" from-port="0" to-layer="50" to-port="1"/>
		<edge from-layer="50" from-port="2" to-layer="52" to-port="0"/>
		<edge from-layer="51" from-port="0" to-layer="52" to-port="1"/>
		<edge from-layer="52" from-port="2" to-layer="53" to-port="0"/>
		<edge from-layer="53" from-port="1" to-layer="55" to-port="0"/>
		<edge from-layer="54" from-port="0" to-layer="55" to-port="1"/>
		<edge from-layer="55" from-port="2" to-layer="57" to-port="0"/>
		<edge from-layer="56" from-port="0" to-layer="57" to-port="1"/>
		<edge from-layer="57" from-port="2" to-layer="58" to-port="0"/>
		<edge from-layer="58" from-port="1" to-layer="60" to-port="0"/>
		<edge from-layer="59" from-port="0" to-layer="60" to-port="1"/>
		<edge from-layer="60" from-port="2" to-layer="62" to-port="0"/>
		<edge from-layer="61" from-port="0" to-layer="62" to-port="1"/>
		<edge from-layer="62" from-port="2" to-layer="64" to-port="0"/>
		<edge from-layer="63" from-port="0" to-layer="64" to-port="1"/>
		<edge from-layer="64" from-port="2" to-layer="66" to-port="0"/>
		<edge from-layer="65" from-port="0" to-layer="66" to-port="1"/>
		<edge from-layer="66" from-port="2" to-layer="67" to-port="0"/>
		<edge from-layer="67" from-port="1" to-layer="69" to-port="0"/>
		<edge from-layer="68" from-port="0" to-layer="69" to-port="1"/>
		<edge from-layer="69" from-port="2" to-layer="71" to-port="0"/>
		<edge from-layer="70" from-port="0" to-layer="71" to-port="1"/>
		<edge from-layer="71" from-port="2" to-layer="72" to-port="0"/>
		<edge from-layer="72" from-port="1" to-layer="74" to-port="0"/>
		<edge from-layer="73" from-port="0" to-layer="74" to-port="1"/>
		<edge from-layer="74" from-port="2" to-layer="76" to-port="0"/>
		<edge from-layer="75" from-port="0" to-layer="76" to-port="1"/>
		<edge from-layer="62" from-port="2" to-layer="77" to-port="0"/>
		<edge from-layer="76" from-port="2" to-layer="77" to-port="1"/>
		<edge from-layer="77" from-port="2" to-layer="79" to-port="0"/>
		<edge from-layer="78" from-port="0" to-layer="79" to-port="1"/>
		<edge from-layer="79" from-port="2" to-layer="81" to-port="0"/>
		<edge from-layer="80" from-port="0" to-layer="81" to-port="1"/>
		<edge from-layer="81" from-port="2" to-layer="82" to-port="0"/>
		<edge from-layer="82" from-port="1" to-layer="84" to-port="0"/>
		<edge from-layer="83" from-port="0" to-layer="84" to-port="1"/>
		<edge from-layer="84" from-port="2" to-layer="86" to-port="0"/>
		<edge from-layer="85" from-port="0" to-layer="86" to-port="1"/>
		<edge from-layer="86" from-port="2" to-layer="87" to-port="0"/>
		<edge from-layer="87" from-port="1" to-layer="89" to-port="0"/>
		<edge from-layer="88" from-port="0" to-layer="89" to-port="1"/>
		<edge from-layer="89" from-port="2" to-layer="91" to-port="0"/>
		<edge from-layer="90" from-port="0" to-layer="91" to-port="1"/>
		<edge from-layer="77" from-port="2" to-layer="92" to-port="0"/>
		<edge from-layer="91" from-port="2" to-layer="92" to-port="1"/>
		<edge from-layer="92" from-port="2" to-layer="94" to-port="0"/>
		<edge from-layer="93" from-port="0" to-layer="94" to-port="1"/>
		<edge from-layer="94" from-port="2" to-layer="96" to-port="0"/>
		<edge from-layer="95" from-port="0" to-layer="96" to-port="1"/>
		<edge from-layer="96" from-port="2" to-layer="97" to-port="0"/>
		<edge from-layer="97" from-port="1" to-layer="99" to-port="0"/>
		<edge from-layer="98" from-port="0" to-layer="99" to-port="1"/>
		<edge from-layer="99" from-port="2" to-layer="101" to-port="0"/>
		<edge from-layer="100" from-port="0" to-layer="101" to-port="1"/>
		<edge from-layer="101" from-port="2" to-layer="102" to-port="0"/>
		<edge from-layer="102" from-port="1" to-layer="104" to-port="0"/>
		<edge from-layer="103" from-port="0" to-layer="104" to-port="1"/>
		<edge from-layer="104" from-port="2" to-layer="106" to-port="0"/>
		<edge from-layer="105" from-port="0" to-layer="106" to-port="1"/>
		<edge from-layer="106" from-port="2" to-layer="108" to-port="0"/>
		<edge from-layer="107" from-port="0" to-layer="108" to-port="1"/>
		<edge from-layer="108" from-port="2" to-layer="110" to-port="0"/>
		<edge from-layer="109" from-port="0" to-layer="110" to-port="1"/>
		<edge from-layer="110" from-port="2" to-layer="111" to-port="0"/>
		<edge from-layer="111" from-port="1" to-layer="113" to-port="0"/>
		<edge from-layer="112" from-port="0" to-layer="113" to-port="1"/>
		<edge from-layer="113" from-port="2" to-layer="115" to-port="0"/>
		<edge from-layer="114" from-port="0" to-layer="115" to-port="1"/>
		<edge from-layer="115" from-port="2" to-layer="116" to-port="0"/>
		<edge from-layer="116" from-port="1" to-layer="118" to-port="0"/>
		<edge from-layer="117" from-port="0" to-layer="118" to-port="1"/>
		<edge from-layer="118" from-port="2" to-layer="120" to-port="0"/>
		<edge from-layer="119" from-port="0" to-layer="120" to-port="1"/>
		<edge from-layer="106" from-port="2" to-layer="121" to-port="0"/>
		<edge from-layer="120" from-port="2" to-layer="121" to-port="1"/>
		<edge from-layer="121" from-port="2" to-layer="123" to-port="0"/>
		<edge from-layer="122" from-port="0" to-layer="123" to-port="1"/>
		<edge from-layer="123" from-port="2" to-layer="125" to-port="0"/>
		<edge from-layer="124" from-port="0" to-layer="125" to-port="1"/>
		<edge from-layer="125" from-port="2" to-layer="126" to-port="0"/>
		<edge from-layer="126" from-port="1" to-layer="128" to-port="0"/>
		<edge from-layer="127" from-port="0" to-layer="128" to-port="1"/>
		<edge from-layer="128" from-port="2" to-layer="130" to-port="0"/>
		<edge from-layer="129" from-port="0" to-layer="130" to-port="1"/>
		<edge from-layer="130" from-port="2" to-layer="131" to-port="0"/>
		<edge from-layer="131" from-port="1" to-layer="133" to-port="0"/>
		<edge from-layer="132" from-port="0" to-layer="133" to-port="1"/>
		<edge from-layer="133" from-port="2" to-layer="135" to-port="0"/>
		<edge from-layer="134" from-port="0" to-layer="135" to-port="1"/>
		<edge from-layer="121" from-port="2" to-layer="136" to-port="0"/>
		<edge from-layer="135" from-port="2" to-layer="136" to-port="1"/>
		<edge from-layer="136" from-port="2" to-layer="138" to-port="0"/>
		<edge from-layer="137" from-port="0" to-layer="138" to-port="1"/>
		<edge from-layer="138" from-port="2" to-layer="140" to-port="0"/>
		<edge from-layer="139" from-port="0" to-layer="140" to-port="1"/>
		<edge from-layer="140" from-port="2" to-layer="141" to-port="0"/>
		<edge from-layer="141" from-port="1" to-layer="143" to-port="0"/>
		<edge from-layer="142" from-port="0" to-layer="143" to-port="1"/>
		<edge from-layer="143" from-port="2" to-layer="145" to-port="0"/>
		<edge from-layer="144" from-port="0" to-layer="145" to-port="1"/>
		<edge from-layer="145" from-port="2" to-layer="146" to-port="0"/>
		<edge from-layer="146" from-port="1" to-layer="148" to-port="0"/>
		<edge from-layer="147" from-port="0" to-layer="148" to-port="1"/>
		<edge from-layer="148" from-port="2" to-layer="150" to-port="0"/>
		<edge from-layer="149" from-port="0" to-layer="150" to-port="1"/>
		<edge from-layer="136" from-port="2" to-layer="151" to-port="0"/>
		<edge from-layer="150" from-port="2" to-layer="151" to-port="1"/>
		<edge from-layer="151" from-port="2" to-layer="153" to-port="0"/>
		<edge from-layer="152" from-port="0" to-layer="153" to-port="1"/>
		<edge from-layer="153" from-port="2" to-layer="155" to-port="0"/>
		<edge from-layer="154" from-port="0" to-layer="155" to-port="1"/>
		<edge from-layer="155" from-port="2" to-layer="156" to-port="0"/>
		<edge from-layer="156" from-port="1" to-layer="158" to-port="0"/>
		<edge from-layer="157" from-port="0" to-layer="158" to-port="1"/>
		<edge from-layer="158" from-port="2" to-layer="160" to-port="0"/>
		<edge from-layer="159" from-port="0" to-layer="160" to-port="1"/>
		<edge from-layer="160" from-port="2" to-layer="161" to-port="0"/>
		<edge from-layer="161" from-port="1" to-layer="163" to-port="0"/>
		<edge from-layer="162" from-port="0" to-layer="163" to-port="1"/>
		<edge from-layer="163" from-port="2" to-layer="165" to-port="0"/>
		<edge from-layer="164" from-port="0" to-layer="165" to-port="1"/>
		<edge from-layer="165" from-port="2" to-layer="167" to-port="0"/>
		<edge from-layer="166" from-port="0" to-layer="167" to-port="1"/>
		<edge from-layer="167" from-port="2" to-layer="169" to-port="0"/>
		<edge from-layer="168" from-port="0" to-layer="169" to-port="1"/>
		<edge from-layer="169" from-port="2" to-layer="170" to-port="0"/>
		<edge from-layer="170" from-port="1" to-layer="172" to-port="0"/>
		<edge from-layer="171" from-port="0" to-layer="172" to-port="1"/>
		<edge from-layer="172" from-port="2" to-layer="174" to-port="0"/>
		<edge from-layer="173" from-port="0" to-layer="174" to-port="1"/>
		<edge from-layer="174" from-port="2" to-layer="175" to-port="0"/>
		<edge from-layer="175" from-port="1" to-layer="177" to-port="0"/>
		<edge from-layer="176" from-port="0" to-layer="177" to-port="1"/>
		<edge from-layer="177" from-port="2" to-layer="179" to-port="0"/>
		<edge from-layer="178" from-port="0" to-layer="179" to-port="1"/>
		<edge from-layer="165" from-port="2" to-layer="180" to-port="0"/>
		<edge from-layer="179" from-port="2" to-layer="180" to-port="1"/>
		<edge from-layer="180" from-port="2" to-layer="182" to-port="0"/>
		<edge from-layer="181" from-port="0" to-layer="182" to-port="1"/>
		<edge from-layer="182" from-port="2" to-layer="184" to-port="0"/>
		<edge from-layer="183" from-port="0" to-layer="184" to-port="1"/>
		<edge from-layer="184" from-port="2" to-layer="186" to-port="0"/>
		<edge from-layer="185" from-port="0" to-layer="186" to-port="1"/>
		<edge from-layer="186" from-port="2" to-layer="188" to-port="0"/>
		<edge from-layer="187" from-port="0" to-layer="188" to-port="1"/>
		<edge from-layer="188" from-port="2" to-layer="190" to-port="0"/>
		<edge from-layer="189" from-port="0" to-layer="190" to-port="1"/>
		<edge from-layer="190" from-port="2" to-layer="191" to-port="0"/>
		<edge from-layer="191" from-port="1" to-layer="192" to-port="0"/>
	</edges>
	<meta_data>
		<MO_version value="2021.3.0-2787-60059f2c755-releases/2021/3"/>
		<cli_parameters>
			<batch value="1"/>
			<caffe_parser_path value="DIR"/>
			<data_type value="FP32"/>
			<disable_nhwc_to_nchw value="False"/>
			<disable_omitting_optional value="False"/>
			<disable_resnet_optimization value="False"/>
			<disable_weights_compression value="False"/>
			<enable_concat_optimization value="False"/>
			<enable_flattening_nested_params value="False"/>
			<enable_ssd_gluoncv value="False"/>
			<extensions value="DIR"/>
			<framework value="tf"/>
			<freeze_placeholder_with_value value="{}"/>
			<generate_deprecated_IR_V7 value="False"/>
			<input_model_is_text value="False"/>
			<k value="DIR/CustomLayersMapping.xml"/>
			<keep_shape_ops value="True"/>
			<legacy_mxnet_model value="False"/>
			<log_level value="ERROR"/>
			<mean_scale_values value="{}"/>
			<mean_values value="()"/>
			<model_name value="crnn192_fp32"/>
			<output_dir value="DIR"/>
			<placeholder_data_types value="{}"/>
			<progress value="False"/>
			<remove_memory value="False"/>
			<remove_output_softmax value="False"/>
			<reverse_input_channels value="False"/>
			<save_params_from_nd value="False"/>
			<saved_model_dir value="DIR"/>
			<scale_values value="()"/>
			<silent value="False"/>
			<static_shape value="False"/>
			<stream_output value="False"/>
			<unset unset_cli_parameters="counts, disable_fusing, disable_gfusing, finegrain_fusing, input, input_checkpoint, input_meta_graph, input_model, input_proto, input_shape, input_symbol, mean_file, mean_file_offsets, move_to_preprocess, nd_prefix_name, output, placeholder_shapes, pretrained_model_name, saved_model_tags, scale, tensorboard_logdir, tensorflow_custom_layer_libraries, tensorflow_custom_operations_config_update, tensorflow_object_detection_api_pipeline_config, tensorflow_use_custom_operations_config, transformations_config"/>
		</cli_parameters>
	</meta_data>
</net>
